mobile_app/assets/tflite/BasicLSTM.tflite (tflite, 115980 bytes, 6 tensors)

lstm/lstm_cell_1/bias f4 [256]
000000 80 57 36 3c 46 87 da 3c 64 bd 4e 3c d3 19 e6 3b
       0.01112926 0.026675832 0.012618396 0.0070221215
000010 c1 76 a9 3c ec f2 86 3c 9d ab 85 3c 59 a8 72 3c
       0.02068651 0.016473256 0.016317183 0.014810645
000020 25 65 fe bc b6 87 16 3c ea bf be 3c ad 5c a0 3c
       -0.031054089 0.009187629 0.023284871 0.019575441
000030 d4 3f 12 3b b0 38 1d 3c 96 9b 27 3c 73 25 5f 3b
       0.0022315877 0.009596035 0.010229966 0.003404942
000040 dd 39 b1 3c fd 46 58 3c 79 21 c0 3c 6d 3b 22 3d
       0.021634037 0.013200519 0.023453461 0.039607454
000050 59 06 41 3c 2f 2a b0 3c 6d ad a2 3c 60 6c 86 3c
       0.011781299 0.02150449 0.019858086 0.0164091
000060 69 af 1d 3c ef 0f b6 3c 14 10 ce bb 40 c0 88 3c
       0.009624341 0.022224395 -0.0062885378 0.016693234
000070 96 04 ce 3c ba f2 dc 3c 71 38 ac 3c 77 9d 94 3a
       0.025148671 0.02697121 0.021023007 0.0011338432
000080 ff 0d c7 3c 38 ea 1d 3d fc 7e 85 3c 97 fa cd 3c
       0.024298666 0.038553447 0.016295902 0.025143905
000090 e0 98 75 b9 46 45 92 3c 90 16 06 3d 69 71 cb 3b
       -0.00023421971 0.017855298 0.03273636 0.006208588
0000a0 75 0a f8 3c 17 92 8f 3c 4a 57 fb 3b df ba 4c 3c
       0.030278424 0.017525716 0.007670318 0.012495725
0000b0 23 ef 7a 3c c1 78 a7 3c 2f 2a b3 3c 00 da aa 3c
       0.015315804 0.020443322 0.0218707 0.020855904
0000c0 44 8e 47 3c 5b 64 8c 3c 33 ef 3e 3c 6d 13 9d bb
       0.012179915 0.017137697 0.011653709 -0.0047935755
0000d0 eb 1a ea 3c c9 0b b5 3c 1e ae 31 3b 1c f4 87 3c
       0.028577289 0.022100346 0.0027111839 0.016595893
0000e0 d7 65 ae 3c d1 d6 aa 3c aa 07 81 3c 85 e6 62 3c
       0.021288795 0.020854386 0.015750725 0.013848905
0000f0 fd 3c 96 3c 3e f8 01 3d d1 da 5a 3b ce 4d 4c 3c
       0.018339628 0.031730883 0.0033394585 0.012469722
000100 8e 61 83 3f 34 00 86 3f 94 e7 83 3f 49 c2 83 3f
       1.0264146 1.0468812 1.0305047 1.0293666
000110 1c e5 84 3f 25 f5 83 3f bb 1f 85 3f e8 3f 84 3f
       1.0382419 1.0309187 1.0400308 1.0332003
000120 44 d6 7a 3f ce 1f 83 3f 73 8b 84 3f e9 21 84 3f
       0.97983193 1.0244081 1.0355057 1.0322849
000130 03 31 82 3f bf f9 82 3f 19 3c 82 3f 3e 80 82 3f
       1.0171207 1.0232466 1.017459 1.0195386
000140 c6 e4 84 3f 2e b2 83 3f e5 39 85 3f 57 d9 87 3f
       1.0382316 1.0288751 1.0408293 1.0613202
000150 52 91 83 3f 33 d9 84 3f 63 36 85 3f 39 c9 83 3f
       1.0278723 1.0378784 1.0407223 1.0295783
000160 2f 07 83 3f a0 1e 85 3f 25 67 81 3f 2f 32 84 3f
       1.0236567 1.0399971 1.0109602 1.0327815
000170 9e 4b 86 3f 4d 53 85 3f 9e 9c 84 3f 6b 74 81 3f
       1.0491827 1.0416046 1.0360296 1.0113653
000180 ca 2c 85 3f 20 19 87 3f ac 25 84 3f b5 bb 85 3f
       1.0404294 1.0554543 1.0323997 1.0447909
000190 10 a9 81 3f 2f 96 84 3f 19 55 86 3f 42 c9 82 3f
       1.0129719 1.0358332 1.049472 1.0217669
0001a0 e7 8b 86 3f 19 a7 83 3f 38 4f 84 3f e8 69 83 3f
       1.0511445 1.0285369 1.0336676 1.0266695
0001b0 c4 b0 84 3f c3 2f 84 3f ad cb 84 3f c8 45 84 3f
       1.0366445 1.0327076 1.0374657 1.0333796
0001c0 45 14 83 3f 21 74 84 3f e0 bd 82 3f e0 86 81 3f
       1.0240561 1.034794 1.0214195 1.0119286
0001d0 cd 3b 87 3f b6 33 85 3f 84 c7 81 3f 57 df 83 3f
       1.0565125 1.0406406 1.0139012 1.0302533
0001e0 7c a4 84 3f 4d cd 84 3f 77 95 83 3f cf 57 83 3f
       1.0362697 1.0375153 1.0279988 1.0261172
0001f0 44 59 84 3f 38 ea 87 3f 1d 01 82 3f 24 58 83 3f
       1.0339742 1.0618353 1.015659 1.0261273
000200 a2 65 f8 3b 53 83 fe bb 98 cb 4d 3c de 25 60 3c
       0.007580475 -0.00776712 0.012560748 0.013680903
000210 cb 14 02 3c 7e fc 63 bc 68 23 93 bc 5c 0c 59 3c
       0.007939528 -0.013915179 -0.017961219 0.013247576
000220 22 04 6c 3c 58 48 3d bc 4a 15 e4 3b bd 66 2f bc
       0.014405282 -0.011552893 0.0069605457 -0.010705647
000230 be 0c 11 bc 75 d0 06 bc c6 c1 4b bb fc 12 3e 3c
       -0.008853136 -0.008228411 -0.003109084 0.011601206
000240 52 58 00 3c f6 1c 5d 3c 21 80 0f 3c ea a3 2c 3d
       0.007833557 0.013495674 0.008758576 0.042148508
000250 f9 72 92 3a 60 18 55 bc 33 c5 d4 3b f7 b3 14 bc
       0.001117318 -0.0130063 0.0064932345 -0.00907611
000260 27 91 30 3c ba ce 55 ba c7 6c 51 bc 7a 03 ba bb
       0.0107767945 -0.000815611 -0.012782282 -0.005676684
000270 b2 ea 1d bc 4b d6 13 bc d4 fe 02 3c c9 75 46 bc
       -0.009638475 -0.009023259 0.007995326 -0.012113043
000280 90 84 ab bc 39 c4 46 bd 45 23 24 bb 5b 13 83 3c
       -0.020937234 -0.048526976 -0.0025045436 0.01600044
000290 4c 75 41 bc 21 c2 53 3c 97 26 14 bc 87 38 3b 39
       -0.011807751 0.012924702 -0.009042404 0.00017854768
0002a0 0a a1 06 bc 9a 47 d3 3b 2a 7f 31 3c 63 50 10 bc
       -0.008217106 0.0064477446 0.010833541 -0.008808228
0002b0 c4 60 fb bb 04 d3 25 3c 59 12 25 bc 5a 3a 51 bc
       -0.0076714475 0.010121111 -0.010075175 -0.01277026
0002c0 14 83 cd bb e5 0f f6 bb 70 24 04 bc bb fb dc 3b
       -0.0062717292 -0.007509219 -0.008065328 0.006743876
0002d0 bc 92 21 3c 9b 67 1a 3d 47 02 4e 3c b8 41 e1 bb
       0.009861644 0.037696462 0.012573785 -0.0068742894
0002e0 27 f3 26 bc 2d ac 0e bc 00 d7 2e bc 3e 46 13 bc
       -0.010189808 -0.008708042 -0.010671377 -0.008988915
0002f0 c0 31 41 3c a4 0e 60 bd 08 2d 02 3c 59 21 3a 3c
       0.0117916465 -0.054701462 0.007945307 0.01136049
000300 20 ce 8b 3c ea 4c 1c 3d aa 69 a6 3c 5e 6c 52 3c
       0.017066061 0.03815929 0.020314056 0.01284322
000310 11 64 00 3d a7 20 b7 3c 91 7e f7 3c 5a 54 fa 3c
       0.03134543 0.022354437 0.030211719 0.0305578
000320 b9 41 01 bd b9 f8 a5 3c a1 92 0a 3d 18 36 d9 3c
       -0.03155682 0.020260202 0.033831242 0.026515052
000330 8f 21 f4 3b f9 b6 71 3c 47 44 82 3c b2 e8 0b 3c
       0.0074502896 0.014753097 0.015901698 0.008539366
000340 2e 5f 07 3d d3 8e c7 3c 74 d5 0a 3d e1 70 5f 3d
       0.033049755 0.024360096 0.03389497 0.05455101
000350 fd 4b 99 3c 91 6d f2 3c 35 3e 14 3d a9 60 d5 3c
       0.018712992 0.029593261 0.036192138 0.026047068
000360 48 a3 a9 3c 0f e0 34 3d 5f 8b 57 bb 4e 5b f4 3c
       0.020707741 0.04415899 -0.0032889468 0.029828694
000370 76 1b 12 3d e4 5b 1a 3d 4b f6 f4 3c 15 3e 46 3c
       0.03567072 0.03768529 0.029902598 0.012099762
000380 de b7 07 3d 95 84 71 3d c7 3e e9 3c fe c7 11 3d
       0.033134334 0.05896433 0.028472317 0.035591118
000390 a4 c9 d1 3a 0c ad d8 3c de dc 31 3d a6 ed 53 3c
       0.0016005528 0.026449703 0.043423526 0.012935078
0003a0 a6 27 2a 3d f2 09 ed 3c 83 bc 12 3d b6 d7 c3 3c
       0.041541718 0.028935406 0.03582431 0.02390657
0003b0 ff 92 ce 3c 64 f6 fa 3c 89 f6 02 3d 52 64 e2 3c
       0.025216578 0.030635066 0.031973395 0.027635727
0003c0 1e b4 b3 3c 14 27 ec 3c 29 98 61 3c 9c cb 86 3b
       0.021936473 0.028827228 0.013769188 0.0041136276
0003d0 a8 ce 31 3d 31 65 31 3d 49 2d 7b 3c 0e 18 c9 3c
       0.043409973 0.043309394 0.015330621 0.024547603
0003e0 ff 0d 01 3d ce 41 e7 3c 7d a2 d4 3c db 65 8b 3c
       0.03150749 0.02822962 0.025956387 0.017016342
0003f0 d7 89 03 3d b4 76 60 3d 2b 03 5a 3c c1 db a3 3c
       0.032113876 0.054800704 0.013306419 0.020002248

TensorArrayV2_1 f4 [20, 1, 64]
000000 00 00 00 00 00 00 00 00 00 00 00 00 00 00 00 00
       0.0 0.0 0.0 0.0
000010 00 00 00 00 00 00 00 00 00 00 00 00 00 00 00 00
       0.0 0.0 0.0 0.0
000020 00 00 00 00 00 00 00 00 00 00 00 00 00 00 00 00
       0.0 0.0 0.0 0.0
000030 00 00 00 00 00 00 00 00 00 00 00 00 00 00 00 00
       0.0 0.0 0.0 0.0
000040 00 00 00 00 00 00 00 00 00 00 00 00 00 00 00 00
       0.0 0.0 0.0 0.0
000050 00 00 00 00 00 00 00 00 00 00 00 00 00 00 00 00
       0.0 0.0 0.0 0.0
000060 00 00 00 00 00 00 00 00 00 00 00 00 00 00 00 00
       0.0 0.0 0.0 0.0
000070 00 00 00 00 00 00 00 00 00 00 00 00 00 00 00 00
       0.0 0.0 0.0 0.0
000080 00 00 00 00 00 00 00 00 00 00 00 00 00 00 00 00
       0.0 0.0 0.0 0.0
000090 00 00 00 00 00 00 00 00 00 00 00 00 00 00 00 00
       0.0 0.0 0.0 0.0
0000a0 00 00 00 00 00 00 00 00 00 00 00 00 00 00 00 00
       0.0 0.0 0.0 0.0
0000b0 00 00 00 00 00 00 00 00 00 00 00 00 00 00 00 00
       0.0 0.0 0.0 0.0
0000c0 00 00 00 00 00 00 00 00 00 00 00 00 00 00 00 00
       0.0 0.0 0.0 0.0
0000d0 00 00 00 00 00 00 00 00 00 00 00 00 00 00 00 00
       0.0 0.0 0.0 0.0
0000e0 00 00 00 00 00 00 00 00 00 00 00 00 00 00 00 00
       0.0 0.0 0.0 0.0
0000f0 00 00 00 00 00 00 00 00 00 00 00 00 00 00 00 00
       0.0 0.0 0.0 0.0
000100 00 00 00 00 00 00 00 00 00 00 00 00 00 00 00 00
       0.0 0.0 0.0 0.0
000110 00 00 00 00 00 00 00 00 00 00 00 00 00 00 00 00
       0.0 0.0 0.0 0.0
000120 00 00 00 00 00 00 00 00 00 00 00 00 00 00 00 00
       0.0 0.0 0.0 0.0
000130 00 00 00 00 00 00 00 00 00 00 00 00 00 00 00 00
       0.0 0.0 0.0 0.0
000140 00 00 00 00 00 00 00 00 00 00 00 00 00 00 00 00
       0.0 0.0 0.0 0.0
000150 00 00 00 00 00 00 00 00 00 00 00 00 00 00 00 00
       0.0 0.0 0.0 0.0
000160 00 00 00 00 00 00 00 00 00 00 00 00 00 00 00 00
       0.0 0.0 0.0 0.0
000170 00 00 00 00 00 00 00 00 00 00 00 00 00 00 00 00
       0.0 0.0 0.0 0.0
000180 00 00 00 00 00 00 00 00 00 00 00 00 00 00 00 00
       0.0 0.0 0.0 0.0
000190 00 00 00 00 00 00 00 00 00 00 00 00 00 00 00 00
       0.0 0.0 0.0 0.0
0001a0 00 00 00 00 00 00 00 00 00 00 00 00 00 00 00 00
       0.0 0.0 0.0 0.0
0001b0 00 00 00 00 00 00 00 00 00 00 00 00 00 00 00 00
       0.0 0.0 0.0 0.0
0001c0 00 00 00 00 00 00 00 00 00 00 00 00 00 00 00 00
       0.0 0.0 0.0 0.0
0001d0 00 00 00 00 00 00 00 00 00 00 00 00 00 00 00 00
       0.0 0.0 0.0 0.0
0001e0 00 00 00 00 00 00 00 00 00 00 00 00 00 00 00 00
       0.0 0.0 0.0 0.0
0001f0 00 00 00 00 00 00 00 00 00 00 00 00 00 00 00 00
       0.0 0.0 0.0 0.0
000200 00 00 00 00 00 00 00 00 00 00 00 00 00 00 00 00
       0.0 0.0 0.0 0.0
000210 00 00 00 00 00 00 00 00 00 00 00 00 00 00 00 00
       0.0 0.0 0.0 0.0
000220 00 00 00 00 00 00 00 00 00 00 00 00 00 00 00 00
       0.0 0.0 0.0 0.0
000230 00 00 00 00 00 00 00 00 00 00 00 00 00 00 00 00
       0.0 0.0 0.0 0.0
000240 00 00 00 00 00 00 00 00 00 00 00 00 00 00 00 00
       0.0 0.0 0.0 0.0
000250 00 00 00 00 00 00 00 00 00 00 00 00 00 00 00 00
       0.0 0.0 0.0 0.0
000260 00 00 00 00 00 00 00 00 00 00 00 00 00 00 00 00
       0.0 0.0 0.0 0.0
000270 00 00 00 00 00 00 00 00 00 00 00 00 00 00 00 00
       0.0 0.0 0.0 0.0
000280 00 00 00 00 00 00 00 00 00 00 00 00 00 00 00 00
       0.0 0.0 0.0 0.0
000290 00 00 00 00 00 00 00 00 00 00 00 00 00 00 00 00
       0.0 0.0 0.0 0.0
0002a0 00 00 00 00 00 00 00 00 00 00 00 00 00 00 00 00
       0.0 0.0 0.0 0.0
0002b0 00 00 00 00 00 00 00 00 00 00 00 00 00 00 00 00
       0.0 0.0 0.0 0.0
0002c0 00 00 00 00 00 00 00 00 00 00 00 00 00 00 00 00
       0.0 0.0 0.0 0.0
0002d0 00 00 00 00 00 00 00 00 00 00 00 00 00 00 00 00
       0.0 0.0 0.0 0.0
0002e0 00 00 00 00 00 00 00 00 00 00 00 00 00 00 00 00
       0.0 0.0 0.0 0.0
0002f0 00 00 00 00 00 00 00 00 00 00 00 00 00 00 00 00
       0.0 0.0 0.0 0.0
000300 00 00 00 00 00 00 00 00 00 00 00 00 00 00 00 00
       0.0 0.0 0.0 0.0
000310 00 00 00 00 00 00 00 00 00 00 00 00 00 00 00 00
       0.0 0.0 0.0 0.0
000320 00 00 00 00 00 00 00 00 00 00 00 00 00 00 00 00
       0.0 0.0 0.0 0.0
000330 00 00 00 00 00 00 00 00 00 00 00 00 00 00 00 00
       0.0 0.0 0.0 0.0
000340 00 00 00 00 00 00 00 00 00 00 00 00 00 00 00 00
       0.0 0.0 0.0 0.0
000350 00 00 00 00 00 00 00 00 00 00 00 00 00 00 00 00
       0.0 0.0 0.0 0.0
000360 00 00 00 00 00 00 00 00 00 00 00 00 00 00 00 00
       0.0 0.0 0.0 0.0
000370 00 00 00 00 00 00 00 00 00 00 00 00 00 00 00 00
       0.0 0.0 0.0 0.0
000380 00 00 00 00 00 00 00 00 00 00 00 00 00 00 00 00
       0.0 0.0 0.0 0.0
000390 00 00 00 00 00 00 00 00 00 00 00 00 00 00 00 00
       0.0 0.0 0.0 0.0
0003a0 00 00 00 00 00 00 00 00 00 00 00 00 00 00 00 00
       0.0 0.0 0.0 0.0
0003b0 00 00 00 00 00 00 00 00 00 00 00 00 00 00 00 00
       0.0 0.0 0.0 0.0
0003c0 00 00 00 00 00 00 00 00 00 00 00 00 00 00 00 00
       0.0 0.0 0.0 0.0
0003d0 00 00 00 00 00 00 00 00 00 00 00 00 00 00 00 00
       0.0 0.0 0.0 0.0
0003e0 00 00 00 00 00 00 00 00 00 00 00 00 00 00 00 00
       0.0 0.0 0.0 0.0
0003f0 00 00 00 00 00 00 00 00 00 00 00 00 00 00 00 00
       0.0 0.0 0.0 0.0

sequential/dense/MatMul f4 [1, 64]
000000 64 ca 19 3e e4 b6 55 be 8b fc 36 3e ad 01 79 3d
       0.15018612 -0.20870548 0.17869775 0.060792614
000010 e5 a5 82 3e 54 a6 8f bd d5 a3 06 bd de d5 88 3e
       0.25517192 -0.070141464 -0.032871086 0.26725668
000020 5b de e5 3d a2 07 ef bd c2 3f 9b 3e cb ae 26 bd
       0.112240516 -0.11671378 0.3032208 -0.04069404
000030 71 a4 ef bd 90 34 e7 bd 1d 00 60 be 71 06 b2 3d
       -0.117012866 -0.112893224 -0.21875043 0.08692635
000040 b4 ee c0 3e e7 6f 54 3e e4 e7 78 3e 71 29 bd be
       0.37682116 0.20745812 0.24307209 -0.3694568
000050 e6 af 97 3e 8c 52 e6 bd 08 fb c4 3e 7f b3 61 be
       0.29626387 -0.11246213 0.38472772 -0.22041129
000060 67 d9 5f 3e 45 12 bd be 0c f2 95 bd e4 c4 ba be
       0.21860276 -0.36928 -0.073215574 -0.3647834
000070 bf ce 9f be e8 b4 b9 be ed 43 c7 3e 1a 85 4b 3e
       -0.31212422 -0.36270833 0.3891901 0.19874993
000080 3a f5 b4 be e2 46 ce 3e 47 76 61 3e 17 43 15 3e
       -0.35343343 0.40288454 0.22017775 0.14576374
000090 cb 66 1e bd 3c a7 36 3e 60 d4 a0 be 12 54 3b 3e
       -0.03867225 0.17837232 -0.3141203 0.18293789
0000a0 3b 96 a8 be 6c 3e 99 3e c4 e8 c7 3e 8f 85 5c be
       -0.32927117 0.29930437 0.39044774 -0.21535324
0000b0 4d ca a8 be 89 d9 81 3e 02 aa 95 be 80 d6 a9 bd
       -0.32966843 0.2536128 -0.29231268 -0.08292866
0000c0 77 e4 50 be a8 bc 8e be b2 88 78 3e 01 98 b8 3e
       -0.20399652 -0.27878308 0.24270895 0.3605347
0000d0 0a 8b d4 bb fa ea 8d be 7e a4 4c 3e 79 be 81 be
       -0.0064863013 -0.27718335 0.19984624 -0.25340632
0000e0 28 4d 92 be bf 98 78 be ed a3 87 be de 7e 71 bd
       -0.2857449 -0.24277018 -0.26492253 -0.05895888
0000f0 77 48 a7 3e 51 98 ae 3e 2a c9 3d 3e a1 83 e2 3d
       0.32672474 0.34100583 0.18533769 0.110602625

lstm/lstm_cell_1/bias1 f4 [256]
000000 80 57 36 3c 46 87 da 3c 64 bd 4e 3c d3 19 e6 3b
       0.01112926 0.026675832 0.012618396 0.0070221215
000010 c1 76 a9 3c ec f2 86 3c 9d ab 85 3c 59 a8 72 3c
       0.02068651 0.016473256 0.016317183 0.014810645
000020 25 65 fe bc b6 87 16 3c ea bf be 3c ad 5c a0 3c
       -0.031054089 0.009187629 0.023284871 0.019575441
000030 d4 3f 12 3b b0 38 1d 3c 96 9b 27 3c 73 25 5f 3b
       0.0022315877 0.009596035 0.010229966 0.003404942
000040 dd 39 b1 3c fd 46 58 3c 79 21 c0 3c 6d 3b 22 3d
       0.021634037 0.013200519 0.023453461 0.039607454
000050 59 06 41 3c 2f 2a b0 3c 6d ad a2 3c 60 6c 86 3c
       0.011781299 0.02150449 0.019858086 0.0164091
000060 69 af 1d 3c ef 0f b6 3c 14 10 ce bb 40 c0 88 3c
       0.009624341 0.022224395 -0.0062885378 0.016693234
000070 96 04 ce 3c ba f2 dc 3c 71 38 ac 3c 77 9d 94 3a
       0.025148671 0.02697121 0.021023007 0.0011338432
000080 ff 0d c7 3c 38 ea 1d 3d fc 7e 85 3c 97 fa cd 3c
       0.024298666 0.038553447 0.016295902 0.025143905
000090 e0 98 75 b9 46 45 92 3c 90 16 06 3d 69 71 cb 3b
       -0.00023421971 0.017855298 0.03273636 0.006208588
0000a0 75 0a f8 3c 17 92 8f 3c 4a 57 fb 3b df ba 4c 3c
       0.030278424 0.017525716 0.007670318 0.012495725
0000b0 23 ef 7a 3c c1 78 a7 3c 2f 2a b3 3c 00 da aa 3c
       0.015315804 0.020443322 0.0218707 0.020855904
0000c0 44 8e 47 3c 5b 64 8c 3c 33 ef 3e 3c 6d 13 9d bb
       0.012179915 0.017137697 0.011653709 -0.0047935755
0000d0 eb 1a ea 3c c9 0b b5 3c 1e ae 31 3b 1c f4 87 3c
       0.028577289 0.022100346 0.0027111839 0.016595893
0000e0 d7 65 ae 3c d1 d6 aa 3c aa 07 81 3c 85 e6 62 3c
       0.021288795 0.020854386 0.015750725 0.013848905
0000f0 fd 3c 96 3c 3e f8 01 3d d1 da 5a 3b ce 4d 4c 3c
       0.018339628 0.031730883 0.0033394585 0.012469722
000100 8e 61 83 3f 34 00 86 3f 94 e7 83 3f 49 c2 83 3f
       1.0264146 1.0468812 1.0305047 1.0293666
000110 1c e5 84 3f 25 f5 83 3f bb 1f 85 3f e8 3f 84 3f
       1.0382419 1.0309187 1.0400308 1.0332003
000120 44 d6 7a 3f ce 1f 83 3f 73 8b 84 3f e9 21 84 3f
       0.97983193 1.0244081 1.0355057 1.0322849
000130 03 31 82 3f bf f9 82 3f 19 3c 82 3f 3e 80 82 3f
       1.0171207 1.0232466 1.017459 1.0195386
000140 c6 e4 84 3f 2e b2 83 3f e5 39 85 3f 57 d9 87 3f
       1.0382316 1.0288751 1.0408293 1.0613202
000150 52 91 83 3f 33 d9 84 3f 63 36 85 3f 39 c9 83 3f
       1.0278723 1.0378784 1.0407223 1.0295783
000160 2f 07 83 3f a0 1e 85 3f 25 67 81 3f 2f 32 84 3f
       1.0236567 1.0399971 1.0109602 1.0327815
000170 9e 4b 86 3f 4d 53 85 3f 9e 9c 84 3f 6b 74 81 3f
       1.0491827 1.0416046 1.0360296 1.0113653
000180 ca 2c 85 3f 20 19 87 3f ac 25 84 3f b5 bb 85 3f
       1.0404294 1.0554543 1.0323997 1.0447909
000190 10 a9 81 3f 2f 96 84 3f 19 55 86 3f 42 c9 82 3f
       1.0129719 1.0358332 1.049472 1.0217669
0001a0 e7 8b 86 3f 19 a7 83 3f 38 4f 84 3f e8 69 83 3f
       1.0511445 1.0285369 1.0336676 1.0266695
0001b0 c4 b0 84 3f c3 2f 84 3f ad cb 84 3f c8 45 84 3f
       1.0366445 1.0327076 1.0374657 1.0333796
0001c0 45 14 83 3f 21 74 84 3f e0 bd 82 3f e0 86 81 3f
       1.0240561 1.034794 1.0214195 1.0119286
0001d0 cd 3b 87 3f b6 33 85 3f 84 c7 81 3f 57 df 83 3f
       1.0565125 1.0406406 1.0139012 1.0302533
0001e0 7c a4 84 3f 4d cd 84 3f 77 95 83 3f cf 57 83 3f
       1.0362697 1.0375153 1.0279988 1.0261172
0001f0 44 59 84 3f 38 ea 87 3f 1d 01 82 3f 24 58 83 3f
       1.0339742 1.0618353 1.015659 1.0261273
000200 a2 65 f8 3b 53 83 fe bb 98 cb 4d 3c de 25 60 3c
       0.007580475 -0.00776712 0.012560748 0.013680903
000210 cb 14 02 3c 7e fc 63 bc 68 23 93 bc 5c 0c 59 3c
       0.007939528 -0.013915179 -0.017961219 0.013247576
000220 22 04 6c 3c 58 48 3d bc 4a 15 e4 3b bd 66 2f bc
       0.014405282 -0.011552893 0.0069605457 -0.010705647
000230 be 0c 11 bc 75 d0 06 bc c6 c1 4b bb fc 12 3e 3c
       -0.008853136 -0.008228411 -0.003109084 0.011601206
000240 52 58 00 3c f6 1c 5d 3c 21 80 0f 3c ea a3 2c 3d
       0.007833557 0.013495674 0.008758576 0.042148508
000250 f9 72 92 3a 60 18 55 bc 33 c5 d4 3b f7 b3 14 bc
       0.001117318 -0.0130063 0.0064932345 -0.00907611
000260 27 91 30 3c ba ce 55 ba c7 6c 51 bc 7a 03 ba bb
       0.0107767945 -0.000815611 -0.012782282 -0.005676684
000270 b2 ea 1d bc 4b d6 13 bc d4 fe 02 3c c9 75 46 bc
       -0.009638475 -0.009023259 0.007995326 -0.012113043
000280 90 84 ab bc 39 c4 46 bd 45 23 24 bb 5b 13 83 3c
       -0.020937234 -0.048526976 -0.0025045436 0.01600044
000290 4c 75 41 bc 21 c2 53 3c 97 26 14 bc 87 38 3b 39
       -0.011807751 0.012924702 -0.009042404 0.00017854768
0002a0 0a a1 06 bc 9a 47 d3 3b 2a 7f 31 3c 63 50 10 bc
       -0.008217106 0.0064477446 0.010833541 -0.008808228
0002b0 c4 60 fb bb 04 d3 25 3c 59 12 25 bc 5a 3a 51 bc
       -0.0076714475 0.010121111 -0.010075175 -0.01277026
0002c0 14 83 cd bb e5 0f f6 bb 70 24 04 bc bb fb dc 3b
       -0.0062717292 -0.007509219 -0.008065328 0.006743876
0002d0 bc 92 21 3c 9b 67 1a 3d 47 02 4e 3c b8 41 e1 bb
       0.009861644 0.037696462 0.012573785 -0.0068742894
0002e0 27 f3 26 bc 2d ac 0e bc 00 d7 2e bc 3e 46 13 bc
       -0.010189808 -0.008708042 -0.010671377 -0.008988915
0002f0 c0 31 41 3c a4 0e 60 bd 08 2d 02 3c 59 21 3a 3c
       0.0117916465 -0.054701462 0.007945307 0.01136049
000300 20 ce 8b 3c ea 4c 1c 3d aa 69 a6 3c 5e 6c 52 3c
       0.017066061 0.03815929 0.020314056 0.01284322
000310 11 64 00 3d a7 20 b7 3c 91 7e f7 3c 5a 54 fa 3c
       0.03134543 0.022354437 0.030211719 0.0305578
000320 b9 41 01 bd b9 f8 a5 3c a1 92 0a 3d 18 36 d9 3c
       -0.03155682 0.020260202 0.033831242 0.026515052
000330 8f 21 f4 3b f9 b6 71 3c 47 44 82 3c b2 e8 0b 3c
       0.0074502896 0.014753097 0.015901698 0.008539366
000340 2e 5f 07 3d d3 8e c7 3c 74 d5 0a 3d e1 70 5f 3d
       0.033049755 0.024360096 0.03389497 0.05455101
000350 fd 4b 99 3c 91 6d f2 3c 35 3e 14 3d a9 60 d5 3c
       0.018712992 0.029593261 0.036192138 0.026047068
000360 48 a3 a9 3c 0f e0 34 3d 5f 8b 57 bb 4e 5b f4 3c
       0.020707741 0.04415899 -0.0032889468 0.029828694
000370 76 1b 12 3d e4 5b 1a 3d 4b f6 f4 3c 15 3e 46 3c
       0.03567072 0.03768529 0.029902598 0.012099762
000380 de b7 07 3d 95 84 71 3d c7 3e e9 3c fe c7 11 3d
       0.033134334 0.05896433 0.028472317 0.035591118
000390 a4 c9 d1 3a 0c ad d8 3c de dc 31 3d a6 ed 53 3c
       0.0016005528 0.026449703 0.043423526 0.012935078
0003a0 a6 27 2a 3d f2 09 ed 3c 83 bc 12 3d b6 d7 c3 3c
       0.041541718 0.028935406 0.03582431 0.02390657
0003b0 ff 92 ce 3c 64 f6 fa 3c 89 f6 02 3d 52 64 e2 3c
       0.025216578 0.030635066 0.031973395 0.027635727
0003c0 1e b4 b3 3c 14 27 ec 3c 29 98 61 3c 9c cb 86 3b
       0.021936473 0.028827228 0.013769188 0.0041136276
0003d0 a8 ce 31 3d 31 65 31 3d 49 2d 7b 3c 0e 18 c9 3c
       0.043409973 0.043309394 0.015330621 0.024547603
0003e0 ff 0d 01 3d ce 41 e7 3c 7d a2 d4 3c db 65 8b 3c
       0.03150749 0.02822962 0.025956387 0.017016342
0003f0 d7 89 03 3d b4 76 60 3d 2b 03 5a 3c c1 db a3 3c
       0.032113876 0.054800704 0.013306419 0.020002248

while/MatMul_1 f4 [256, 64]
000000 a9 2e 22 3c 9f b2 e9 3c 41 e1 0e 3c b9 70 12 3e
       0.00989882 0.028527556 0.008720697 0.14300813
000010 7c 42 aa 3d 08 8a c2 bd a6 ba 13 3d 77 69 cb bb
       0.08313462 -0.094989836 0.036066674 -0.0062076407
000020 23 d4 73 3d e4 4e 1d 3d 9d fe 5c bd fc a0 62 bd
       0.05952848 0.038405314 -0.053953756 -0.055329308
000030 f3 e4 83 3d e2 ee b3 bd 3c a3 e1 bd 7e 7e d2 3d
       0.06440153 -0.08785798 -0.110174626 0.10278033
000040 56 9d cc ba 5d c9 3f bd 1c 5d 43 bc 5b 30 c4 3b
       -0.0015610855 -0.046822894 -0.0119240545 0.0059872097
000050 2c ec 3d 3d a5 33 1b 3d 49 69 1f bd 5b 24 23 3e
       0.04636781 0.03789105 -0.038918767 0.15931837
000060 2e 65 0d bd 95 d9 92 3c c8 1c e1 bd 21 e2 8c 3d
       -0.03452032 0.017926017 -0.10991818 0.06879068
000070 9b 82 a9 bd a5 65 b1 bd 26 a2 47 3d 93 16 c2 3d
       -0.08276864 -0.08661965 0.04873862 0.09476962
000080 47 93 01 be 2e a8 0d bd ba 0d c4 bb 56 d0 87 bd
       -0.12653838 -0.034584217 -0.0059830816 -0.06631534
000090 b8 76 a3 bd b8 2d 94 bd db 7f da bd 8a a3 4f 3d
       -0.07981628 -0.07235283 -0.10668918 0.050693072
0000a0 50 81 fe 3d ca c9 1b bd f7 b0 2d 3d c7 fe a7 bd
       0.12427008 -0.038034238 0.042405095 -0.08202892
0000b0 d4 02 2a bd a2 46 50 3c fd 58 92 bd 88 10 30 bd
       -0.041506603 0.012712153 -0.071458794 -0.042984515
0000c0 32 dd 19 3d 06 61 d7 bd de a8 03 3e 05 c0 70 bd
       0.037564464 -0.105165526 0.12857386 -0.058776874
0000d0 9b d3 4e bd 9f f3 11 ba 8c 7d 23 bc 6f 66 ae bc
       -0.05049477 -0.00055676134 -0.009978663 -0.021289079
0000e0 19 5f 8d ba b3 a4 8f bc cd d7 f8 3b a5 ef 29 be
       -0.0010785788 -0.01753459 0.007594085 -0.16595323
0000f0 a6 dc 41 3d 4b 10 21 bc 1c 9f 94 3b f4 29 c4 3d
       0.047329567 -0.009830545 0.004535569 0.095783144
000100 71 29 06 bd 06 52 78 3d dd 0b 52 be 09 61 78 3c
       -0.032754365 0.0606251 -0.20512338 0.015159854
000110 39 05 fd bc 09 7e 7b 3d e8 7b 7a bd ed 98 bf bd
       -0.03088628 0.061399493 -0.061153322 -0.0935534
000120 1a f2 0b 3e 93 b8 39 3e 56 53 ac bd 6a 64 02 3c
       0.13666573 0.18136816 -0.084143326 0.007958511
000130 a7 a8 fb 3c d8 f8 c0 3d ca 5e 16 be 3d a9 6f bd
       0.030720068 0.09422463 -0.14684597 -0.058511008
000140 a6 d2 34 be 0d 59 c1 bc c0 6d 29 bd f5 e6 6f 3d
       -0.17658481 -0.023602033 -0.04136443 0.058569867
000150 58 c6 f9 3c 1b b1 ad bc a8 ae 56 bd 9e 8e 15 3d
       0.030490085 -0.021202615 -0.05241266 0.036512963
000160 50 33 25 be d2 7b 23 3d 2e 6a 7b 3b 31 55 0c 3d
       -0.16132855 0.039913006 0.0038362849 0.034260932
000170 41 76 fa bc bb c8 ee bc e9 76 43 3d 5d 05 8b 3d
       -0.030573966 -0.02914845 0.047720823 0.06788132
000180 ec bd 92 bd 10 ba cf bd eb 67 55 bd d6 97 87 bd
       -0.07165131 -0.101429105 -0.052101057 -0.06620757
000190 9e 5c f3 bc 29 c0 64 bd fa 50 16 3c 74 85 ae bd
       -0.02970725 -0.05584732 0.00917458 -0.08521548
0001a0 dc 39 83 3b 02 90 2c bd de 97 b8 bc 78 fb 89 bd
       0.0040047 -0.042129524 -0.022533353 -0.06737417
0001b0 cd 94 20 3e f2 b6 89 3c 11 13 3e 3d d6 34 87 3d
       0.15681763 0.016810868 0.046404902 0.066018745
0001c0 38 31 16 3d f3 60 41 3e 3c ca be ba 60 b7 17 bd
       0.036668032 0.1888464 -0.001455612 -0.037040114
0001d0 9b ea 6c bc 70 8c 13 3e df fb 86 bd 33 e5 a7 3d
       -0.014460231 0.14409041 -0.06591009 0.08198013
0001e0 b5 c8 15 bd 44 e4 63 bd cd a8 9e bd 98 27 95 3c
       -0.036568362 -0.055637613 -0.0774704 0.018207356
0001f0 21 a5 c4 3c 06 a7 c0 bd 82 41 70 bd f3 6b af bd
       0.02400452 -0.09406857 -0.058656223 -0.085655116
000200 60 5d a9 bc 26 94 23 3e 93 b5 f2 3b 7d ee 77 3d
       -0.020674407 0.15974483 0.0074068992 0.060530175
000210 e7 a8 6b bd ac 6f 07 bd d7 c0 41 bd da e2 33 3d
       -0.057534125 -0.033065483 -0.047303047 0.043917514
000220 43 56 cd 3d cb b1 8a ba 3c 1e a2 bc 3b 82 f7 bc
       0.10026219 -0.0010581551 -0.019789807 -0.030213466
000230 0d e4 83 3d 35 49 c3 3d 75 fb e1 bc 48 e2 09 3d
       0.064399816 0.095354475 -0.027585724 0.033663064
000240 05 e3 d9 bd c6 42 08 bd b3 ea 71 bd e4 56 17 bd
       -0.10639004 -0.033266805 -0.059061717 -0.0369481
000250 90 91 9a bc 3a 18 f4 bb 8c d5 f4 bc f6 af ac 3d
       -0.018868238 -0.007449177 -0.029886983 0.084319994
000260 bd 6b 7a 3d b0 3f ed bd 99 c6 8e 3d a8 47 9e 3d
       0.061137903 -0.11584413 0.06971473 0.07728511
000270 ec c0 b0 bd 74 49 0f 3c 94 ef 54 bd e6 ef 08 3c
       -0.08630547 0.00874554 -0.051986292 0.0083579775
000280 fe bf cb bd 85 b8 f1 bc 6c 3b b9 3c 17 7c ab 3d
       -0.09948729 -0.029506931 0.022611342 0.08373278
000290 74 c8 7c bd 4e 5e 29 bd a2 52 68 bd ad 2d 82 bc
       -0.061714604 -0.0413497 -0.05671943 -0.01589092
0002a0 98 17 82 3d a5 a7 cb bb b4 b5 87 3d 99 12 4e 3d
       0.063521564 -0.006215053 0.06626454 0.050310705
0002b0 32 61 ae 3c 3b 83 18 bd 36 22 92 bd 43 f4 82 bc
       0.02128658 -0.037234526 -0.071354315 -0.015985614
0002c0 e0 43 26 bb 1c 25 4b 3d 25 44 cc 3d 54 2b 4b 3d
       -0.0025370046 0.049595937 0.09973935 0.049601868
0002d0 76 1f 55 ba 98 a6 04 3e 46 42 34 3d 6a 71 ec bb
       -0.0008129993 0.12954175 0.044008516 -0.0072156684
0002e0 49 91 3d 3d 75 91 ab bb c4 66 6b bd 44 4b 5f bc
       0.046281133 -0.0052358457 -0.05747105 -0.013628785
0002f0 dc 4d 14 bc 39 1f e6 bc 03 31 86 3c e7 6a 8e bc
       -0.009051766 -0.02809106 0.016380792 -0.01738496
000300 f1 1f 69 3c 34 38 3f bd 46 8a 74 bd dc e5 81 bd
       0.014228807 -0.04668446 -0.05970218 -0.0634267
000310 f7 32 f0 3d 86 22 d4 3d 3f 32 39 bc ba e6 65 3d
       0.11728471 0.10358147 -0.0113034835 0.05612824
000320 4a e9 1f bc f3 af 91 3d c4 a9 dc bd db 77 1c 3d
       -0.00976021 0.07113638 -0.10774568 0.03820024
000330 90 5d ac bd 7f 46 f4 3d fc 07 9c bd 6a 13 a8 3d
       -0.08416283 0.119275086 -0.076187104 0.08206828
000340 f4 a6 87 bc 77 71 0d 3d fe 9f 58 3d aa 92 18 3e
       -0.016559102 0.034532037 0.052886955 0.14899698
000350 b3 7c 9f bc 19 f3 6b bd e4 f0 b3 bd 3f da 9c 3d
       -0.01946864 -0.057604883 -0.087861806 0.07658815
000360 6d 53 94 3c c7 00 b4 3c 98 1a a6 ba 9f 0c de bd
       0.018106187 0.021973027 -0.001267272 -0.10842251
000370 e4 c7 45 bd 3f 33 a8 3d 08 e9 e5 3d 75 84 f0 ba
       -0.048286334 0.082128994 0.11226088 -0.0018350022
000380 cf 24 91 bd e6 66 80 bc 2b f3 63 bd b5 2a ba bc
       -0.07087099 -0.015674066 -0.055651825 -0.022725442
000390 a6 e7 00 3c c5 63 82 bd 44 db 12 3d 7b 10 e8 3d
       0.007867729 -0.06366686 0.03585364 0.113312684
0003a0 33 18 10 be 7d a1 43 3c 37 39 4e 3d 3d 04 99 3d
       -0.14071731 0.011940357 0.050347533 0.074715115
0003b0 57 da 16 3c c9 8c 66 3c a8 ba e9 bd b7 c0 82 bc
       0.00920733 0.014071652 -0.11412555 -0.015961034
0003c0 1d 31 01 3e ef 08 87 bd f0 33 50 3d 59 f1 21 3d
       0.12616391 -0.06593501 0.05083078 0.039536808
0003d0 4e b7 36 bd 52 5b 5f 3c 39 1f 19 bd fb e7 c6 bc
       -0.044608407 0.013632612 -0.037383292 -0.024280539
0003e0 a5 c7 0a be 97 90 69 bd cd 4e b2 bb ca 81 72 3d
       -0.13552721 -0.057022657 -0.0054415227 0.059205808
0003f0 8e 53 6e 3d 9d 90 3b be 0d 73 49 3e fd 92 fa 3c
       0.058185153 -0.18316884 0.19672795 0.030587668

while/MatMul f4 [256, 32]
000000 43 a8 d4 bd a4 d3 e5 bd c1 99 20 3d 7a d2 13 3d
       -0.10383656 -0.11222008 0.03920913 0.036089398
000010 6e 27 e1 3c 99 48 2e 3c fc 12 6c 3d af 89 89 3d
       0.027484622 0.010637426 0.057635292 0.06715714
000020 9d 87 45 bd 64 c8 e1 bd 43 3e ab bd 93 48 02 3e
       -0.048225034 -0.110245496 -0.08361485 0.12722997
000030 8a a9 58 3d 26 9f 11 3e eb 8b 4a bd d8 da 22 bd
       0.05289606 0.14220867 -0.049449842 -0.039759487
000040 17 b3 bf bd 17 e6 77 3d 0c 73 6c bd 68 32 d0 bd
       -0.093603306 0.060522165 -0.057726905 -0.10165864
000050 76 68 1f be de 67 35 3d 8c a4 f5 3d d2 cb 01 be
       -0.15567192 0.04428851 0.119942755 -0.12675408
000060 78 b2 c3 bd 9e 63 e4 3c c8 3a 9b 3d 54 0b 12 3e
       -0.095555246 0.027879532 0.07579571 0.14262134
000070 da 1f 25 3e fc 1c 04 be cc dc 5f bd 0f 90 81 bd
       0.16125432 -0.12901682 -0.054653928 -0.06326305
000080 c3 92 30 3e 5c ea 87 3e df e5 5a 3d c9 24 a3 3c
       0.17243485 0.2654599 0.05344188 0.019915001
000090 d4 fc 41 3e 75 4e 14 3e ed 80 42 3c 46 82 b0 bb
       0.18944103 0.14483054 0.011871559 -0.0053866236
0000a0 da e1 21 bd 85 29 32 bd a6 83 8c bc da db 42 bd
       -0.03952203 -0.043496627 -0.017152619 -0.047572948
0000b0 62 db 28 3c 44 54 6e 3e 58 93 c2 bd 73 5c 52 3e
       0.010306211 0.23274332 -0.0950076 0.20543079
0000c0 29 b3 52 3e 1d 2d 07 be 76 f2 4a bd 0d 8c 7d bd
       0.20576157 -0.13200803 -0.049547635 -0.06190114
0000d0 3d b7 95 bd 6f 7b 5d 3c e6 3b 01 3e 60 ba 16 3e
       -0.073103406 0.013518198 0.12620506 0.14719534
0000e0 4a 4d 8d bd ef ab 3f 3e 00 6d 93 bc 13 8f 5b 3e
       -0.06899507 0.18717931 -0.017996311 0.21441297
0000f0 17 f8 6c be 6e 11 ea bd 6d 15 8f 3c 07 a8 70 3b
       -0.23141514 -0.11429106 0.017466271 0.0036721246
000100 35 b6 17 3e 5c e4 9b bb 6d fb a4 3d 7d 7d 0a 3e
       0.148156 -0.004757447 0.08055768 0.13524432
000110 a0 aa 25 3e 72 39 c4 3d 11 fe e0 3c 99 a6 3d 3e
       0.1617837 0.09581269 0.027464898 0.18520583
000120 0f 24 50 be a9 2d 26 be 1d 2f 8b be 7f 76 09 be
       -0.20326255 -0.16228355 -0.27184382 -0.13424109
000130 18 fb 28 3e e6 a8 d4 3d 34 24 8f bd 3a b7 46 3e
       0.16502035 0.10383777 -0.06989327 0.19405833
000140 d9 f6 bc 3d b4 22 bf bd ed fa 1d bd 8e 2c 2c 3d
       0.0922677 -0.09332791 -0.03856938 0.04203468
000150 a6 8d 73 be c5 db 4f bc 23 c9 1c 3e 5e 51 7d bd
       -0.23784503 -0.0126866745 0.15311103 -0.061845176
000160 4e e6 98 3c e4 57 c1 bc ef e1 94 3d 57 88 0d 3e
       0.018664505 -0.02360148 0.07269656 0.13821541
000170 d2 ae 0b bd 7a b6 d6 bd 16 80 c6 3d 4a 26 bf bd
       -0.03410227 -0.104840234 0.09692399 -0.09333475
000180 6c 43 26 3e 2a 6a 15 3d 7c bf a1 3d c8 86 a3 3d
       0.16236657 0.0364782 0.07897851 0.07984692
000190 45 3a 88 3e 45 05 51 3e a7 d6 26 3e 69 d4 4b 3e
       0.26606956 0.20412166 0.16292821 0.19905247
0001a0 65 63 77 be d3 ba 84 bd 0f 70 48 be 0b 94 d9 bd
       -0.2415901 -0.064809464 -0.19573997 -0.1062394
0001b0 48 3e 63 3e 06 75 8e 3c 20 15 98 be 11 fe 81 3d
       0.22191727 0.017389785 -0.29703617 0.063472874
0001c0 43 2e da 3d 63 e2 bf bd cd 21 65 be b1 08 8e be
       0.10653355 -0.09369352 -0.22376175 -0.27741006
0001d0 4a c3 8e be 48 ad 4b bd d8 c0 04 3e 36 ed 92 3e
       -0.2788337 -0.0497258 0.12964189 0.28696603
0001e0 3f 47 61 bd fe 6b 78 3e 90 2f 35 3d 3c ce 0f 3e
       -0.054999586 0.24259946 0.044234812 0.14043516
0001f0 bb 9f 22 be 1a a8 20 be ac 58 56 be 18 e3 17 be
       -0.15881245 -0.15689126 -0.20932263 -0.14832723
000200 f7 a7 1e 3e 6d 71 5c bd 88 44 b3 3d ce 74 73 3b
       0.15493761 -0.05381911 0.08753306 0.0037148478
000210 28 07 7f 3d 03 1d 0a 3e df 05 81 3d 0f d6 c1 3d
       0.062262684 0.1348763 0.06299948 0.094646566
000220 fb 90 d8 bd fc 69 d8 bb 11 d5 03 bd 91 05 04 3e
       -0.10574528 -0.006604431 -0.032185618 0.12892748
000230 e3 9a 5b bc 35 af 2b bd 4b ce fd bd 05 36 54 bc
       -0.013403627 -0.041915137 -0.12392863 -0.012952332
000240 4e b3 c0 3d 2f 95 5e be 52 6e 9b bc 6c bc 56 bd
       0.094092 -0.21736597 -0.018973503 -0.052425787
000250 6e c8 d1 bd 49 11 cb 3d d3 d5 fb 3d b9 8a 06 be
       -0.10243307 0.09915406 0.12296643 -0.13138856
000260 7e 52 00 bd ba f5 44 3e 54 f5 bf 3d 93 de e3 3d
       -0.03132867 0.19234362 0.093729645 0.11126437
000270 44 d6 00 3e b5 0d cb 3c 33 fe 93 bd 9a 95 59 bd
       0.12581736 0.02478681 -0.07226219 -0.053121187
000280 1b 28 98 3d 1a 02 57 3e 95 3c 80 3d 26 4a 3c 3e
       0.074295245 0.20996895 0.06261555 0.1838766
000290 0e 16 0b 3e 7f 31 cc 3d 19 76 25 3e 24 64 bb 3d
       0.13582632 0.09970378 0.16158332 0.0914996
0002a0 33 7d cb 3a 37 2f c9 bd 34 14 30 be 1e dd 25 be
       0.0015524983 -0.09823459 -0.17195207 -0.16197631
0002b0 15 43 75 3c aa d9 cb 3d 42 c4 4d bc 89 3f 73 3e
       0.014969607 0.099536255 -0.012558999 0.23754705
0002c0 51 1e 1c 3e b1 17 63 be ce 48 84 bd 21 75 a8 3c
       0.1524594 -0.22177006 -0.06459199 0.020563664
0002d0 28 20 25 be 3c 2d af bd 18 90 ee 3d 01 48 e0 3d
       -0.16125548 -0.0855355 0.116485775 0.10951234
0002e0 b1 d3 8a bd 88 88 39 3e 42 d3 0f bd 6a 68 35 3e
       -0.06778658 0.18118489 -0.03511358 0.17715612
0002f0 4f 1a cd bd b9 17 37 be 82 d8 06 be 7c 87 41 be
       -0.100147836 -0.17880143 -0.13168529 -0.1889934
000300 7d bf ee 3c 9f e3 87 3d e6 c0 09 3e 73 da 7d 3e
       0.029144043 0.06635212 0.13452491 0.24790363
000310 01 ce d2 3d 76 d3 8c 3e 8e b6 5c 3e 10 81 3c 3e
       0.102931984 0.27505082 0.21554014 0.18408608
000320 13 47 43 be a3 5f 9c bd d4 02 9a be 59 ba 69 be
       -0.19070081 -0.07635429 -0.30080283 -0.22824992
000330 2b 7d e6 3d 6d 47 3b 3e 12 03 a6 be 39 1d 05 3d
       0.11254343 0.18288966 -0.32424217 0.032498572
000340 51 37 2c 3e 0c 42 86 bd f2 e5 a7 be 3b c0 99 bd
       0.16817977 -0.06555566 -0.32792622 -0.07507368
000350 a1 aa 52 be 54 59 8a bd 42 b8 e5 3d 45 f9 95 3e
       -0.20572902 -0.06755319 0.11216785 0.2929174
000360 cd 6e de bd be e6 7c 3e e1 b1 86 3e b8 60 79 3e
       -0.10860977 0.24697396 0.26307586 0.24353302
000370 59 fb 81 be 49 43 8c be ca 6e 2b be 9f 6b 5d be
       -0.25387076 -0.27395085 -0.16741481 -0.21623085
000380 bd cd 1f 3d 0a ed 63 3e eb d4 b3 3c 25 64 84 3c
       0.039014567 0.22258392 0.021952113 0.016161034
000390 09 07 98 3c c1 d6 fe 3c 3c 53 47 bc 40 c8 12 3e
       0.018558042 0.031108262 -0.012165841 0.14334202
0003a0 41 2f bb 3d 75 30 d1 3c 18 3c 9c bb ae 9d 71 3d
       0.09139872 0.025535801 -0.004767906 0.058988266
0003b0 fa e3 89 bd 06 2b ca 3c 13 5a 21 be 08 07 ee 3d
       -0.06732936 0.024678718 -0.15757017 0.11622435
0003c0 46 4e b3 bd 6d 4e 1c be 71 ac cd bd 1c 65 39 bd
       -0.08755164 -0.15264292 -0.10042656 -0.04526244
0003d0 92 d9 eb bd c0 60 a9 bc 25 42 9a bd 32 7d f8 3d
       -0.115161076 -0.020676017 -0.07532147 0.12133254
0003e0 ef 54 01 be 75 00 b6 3d a8 b6 c1 bd 47 1f 0e 3e
       -0.12630056 0.08886806 -0.09458667 0.13879119
0003f0 88 10 46 bd f4 22 06 bd b5 d1 4e 3d 92 83 85 be
       -0.04835561 -0.032748178 0.05049296 -0.26076943
