mobile_app/assets/tflite/FirstLSTM.tflite (tflite, 118724 bytes, 8 tensors)

lstm/lstm_cell_1/bias f4 [256]
000000 9b 9a 6b 3c be 64 74 3c 17 d4 b3 3c 4c 81 9c 3b
       0.014380123 0.014916597 0.021951718 0.0047761556
000010 fd 4e a4 3c 74 29 4c 3d 32 c7 31 3d 49 64 20 3d
       0.020057196 0.04984422 0.043402858 0.03915814
000020 14 eb 32 3d 6c 41 66 3d cb 99 ec 3b ce b8 83 3d
       0.04368122 0.056214735 0.007220482 0.06431733
000030 f5 b3 b6 3d 34 72 4e 3d 0e 14 4e 3d 1d 2f 08 3d
       0.08921043 0.05040188 0.050312094 0.033248056
000040 45 31 0b 3d ba 20 17 3d 46 26 46 3b 2f 66 63 3d
       0.033982534 0.036896445 0.0030235215 0.05551737
000050 fc bd 29 3d 27 93 29 3d d3 af 10 3c 53 62 1d 3d
       0.04144095 0.0414001 0.008830982 0.038423847
000060 c6 4d 57 3d c0 71 3a 3d fa a4 5d 3c 1f 63 fd 3c
       0.052564405 0.045518637 0.013528103 0.030931054
000070 61 a0 24 3d 8b 77 7f 3c 4f 31 9c 3c 42 8f eb 3b
       0.04019201 0.015592466 0.01906648 0.0071887085
000080 63 bb 42 3d 78 99 c0 3c 1c 02 04 3d f3 9f 9a 3c
       0.047541987 0.02351068 0.032228574 0.018875098
000090 0b be 63 3d 8c 7b 2b 3d 0d 27 07 3d b6 88 d0 3c
       0.05560116 0.04186587 0.032996226 0.025455814
0000a0 a0 de 2a 3d c5 5d 45 3d ad bd 4c 3d 54 23 58 3d
       0.041716218 0.04818513 0.049985576 0.052768067
0000b0 e1 35 39 3d 22 2f 27 3d 19 ae 31 3d 32 f7 39 3d
       0.0452174 0.040816434 0.043378923 0.04540176
0000c0 c2 be 3e 3d 33 58 08 3d 2d d7 58 3d 4f fa 61 3d
       0.04656864 0.03328724 0.052939583 0.055170354
0000d0 eb 15 81 3d a0 d0 90 3c d5 ed 8e 3d 27 88 56 3d
       0.06303009 0.017677605 0.069789566 0.05237594
0000e0 7f f7 9f 3d 31 fa 4e 3b fe c7 f3 3c 46 ce de 3c
       0.07810878 0.0031582231 0.02975845 0.027197968
0000f0 c7 6c 5e 3d e8 16 5a 3a 3b a3 48 3d a8 f6 5e 3d
       0.054302957 0.00083194533 0.048983794 0.05443445
000100 77 78 81 3f ae b7 80 3f 16 4a 81 3f 86 89 7d 3f
       1.0114888 1.0056055 1.0100734 0.9903797
000110 9c 01 82 3f b8 18 86 3f 16 44 85 3f 4c 22 85 3f
       1.0156741 1.0476294 1.0411403 1.0401092
000120 9e 20 85 3f 6a 3d 87 3f e0 5d 7e 3f c5 c6 87 3f
       1.0400579 1.0565617 0.9936199 1.0607535
000130 39 4a 8a 3f 0e b4 85 3f cd e5 86 3f 68 13 84 3f
       1.0803901 1.0445573 1.053888 1.0318422
000140 41 51 84 3f a7 e4 83 3f 67 73 80 3f 4d d7 86 3f
       1.0337297 1.0304154 1.0035218 1.0534455
000150 99 18 85 3f cf cf 84 3f e9 17 81 3f 10 89 84 3f
       1.0398132 1.0375918 1.0085422 1.0354328
000160 96 24 86 3f 38 7b 85 3f 8a 96 80 3f 6a de 82 3f
       1.0479915 1.0428228 1.0045941 1.0224125
000170 0a ae 84 3f 3c 7b 81 3f 07 05 82 3f c8 76 81 3f
       1.0365613 1.0115733 1.0157784 1.0114374
000180 36 4a 86 3f 12 d4 82 3f 51 90 84 3f b2 ab 81 3f
       1.0491397 1.0220969 1.0356542 1.0130522
000190 a0 40 87 3f a8 16 85 3f ab b4 83 3f d9 ac 83 3f
       1.0566597 1.0397539 1.028951 1.0287124
0001a0 af 53 84 3f fd 9b 85 3f 95 da 85 3f ff 57 86 3f
       1.0338038 1.0438229 1.0457331 1.0495604
0001b0 61 1e 85 3f 27 17 85 3f be 39 85 3f 18 ef 85 3f
       1.0399896 1.039769 1.0408247 1.0463591
0001c0 14 d0 85 3f 0e 86 83 3f b5 a2 86 3f 88 61 86 3f
       1.0454125 1.0275285 1.0518404 1.0498514
0001d0 29 ca 86 3f 4e b9 81 3f 9f ca 87 3f 0e 6a 86 3f
       1.0530444 1.0134676 1.060871 1.0501115
0001e0 bf a4 87 3f 60 f2 7e 3f d5 48 83 3f 80 0b 82 3f
       1.0597152 0.99588585 1.0256602 1.015976
0001f0 10 48 86 3f 13 69 7e 3f 99 37 86 3f 54 b3 86 3f
       1.0490742 0.9937908 1.0485717 1.0523477
000200 d3 5e 98 3a 4e ef bb bb 6c 80 13 bc 21 e9 11 3b
       0.001162494 -0.0057353145 -0.009002786 0.00222642
000210 e9 e0 97 bc 8a 1b 85 3b b8 11 8d 3b 35 1f 52 3a
       -0.018539863 0.004062121 0.0043050908 0.00080155145
000220 25 a4 64 bb 4e 07 b6 ba 09 bc 2d bc 05 4c 36 b9
       -0.0034887877 -0.0013887675 -0.010603913 -0.00017385192
000230 35 fb df bb 2b 91 d1 3a 9f ff 7c ba 9b 24 03 3c
       -0.006835366 0.0015988698 -0.00096511276 0.008004333
000240 21 9f 07 3d 7b 3b 15 bc d0 2b 11 3d d0 78 18 38
       0.03311074 -0.0091084195 0.035442173 3.635214e-05
000250 f4 ed 98 b9 c8 70 b4 b9 d6 ba aa bc 05 63 15 3c
       -0.00029168988 -0.00034416304 -0.020841043 0.009117846
000260 62 23 3e 3c 59 c5 c4 3b dd 51 70 bc 65 79 2c bc
       0.011605116 0.006004971 -0.014667955 -0.01052699
000270 1e 19 38 bb 28 87 ad bb 9c 71 04 bc e1 e5 cc 3c
       -0.0028091143 -0.005295653 -0.008083727 0.025011959
000280 5b 56 92 ba f3 23 14 bd 8a 0f ea bc 76 3d 2b b9
       -0.0011164652 -0.036167096 -0.028571863 -0.00016330727
000290 fa bf 22 3c f0 86 5b 3a d1 ce be bb 51 6b 08 3c
       0.009933466 0.0008374294 -0.0058229943 0.0083263675
0002a0 aa 7c f9 3c b0 ac de 3a b4 cd 65 ba 89 a1 ad ba
       0.030454952 0.0016988721 -0.0008766309 -0.0013246994
0002b0 ae 6e 8e bb 8a f7 6a 3b a6 cc 7e bb d1 ad 62 ba
       -0.00434669 0.0035853111 -0.0038879304 -0.00086471165
0002c0 26 85 21 3b 75 fa 18 b9 ce a0 ca bb de 52 5b 39
       0.0024646013 -0.00014589152 -0.00618372 0.00020916338
0002d0 62 a9 f7 39 1d 23 4a bb ea d1 16 bc 9d 3b 21 bb
       0.0004723771 -0.0030843683 -0.009205321 -0.0024602183
0002e0 59 de fb 3a 2e a1 f9 ba df b0 b8 3b 2b c6 30 3a
       0.0019216045 -0.0019045228 0.005636319 0.00067433965
0002f0 8a 8a 38 b9 3f f1 91 3c b2 8e 99 3a e0 f8 70 ba
       -0.00017599217 0.01781523 0.00117155 -0.00091923587
000300 be 83 d0 3c f7 7b 7a 3c 9f 50 1a 3d 01 39 f0 3b
       0.025453445 0.015288345 0.037674543 0.007331014
000310 9e f9 d5 3c f5 e5 6f 3d 44 b8 5a 3d bd 76 45 3d
       0.026120003 0.058568913 0.053398386 0.04820894
000320 38 4a 6f 3d ce ca 85 3d ba 14 e1 3b 26 8a a7 3d
       0.05842039 0.065328225 0.006868926 0.081806466
000330 8f 9c c0 3d bb d2 71 3d ff 7b 8f 3d ce 3b 35 3d
       0.09404861 0.05903886 0.07006072 0.044246487
000340 58 8d 17 3d 24 99 49 3d 47 d1 93 3b b0 79 90 3d
       0.03700003 0.049218312 0.004511032 0.0705446
000350 8c 39 60 3d c6 00 6f 3d 97 cc 5c 3c d7 6f 42 3d
       0.05474238 0.058350347 0.013476512 0.04746994
000360 0f 6d 80 3d 81 1f 40 3d a4 2f a8 3c b1 28 43 3d
       0.06270801 0.046905044 0.02053053 0.04764623
000370 03 87 31 3d 36 95 81 3c 2e 52 dd 3c c1 fc 7a 3c
       0.043341648 0.01581822 0.027016725 0.01531905
000380 13 c0 82 3d 79 7d 95 3c 9b 76 34 3d f4 6c d8 3c
       0.063842915 0.018248307 0.044058423 0.02641914
000390 2b 1f 9a 3d 74 7f 68 3d d8 be 14 3d 8e 53 35 3d
       0.07525476 0.056762174 0.036314815 0.044269137
0003a0 92 76 3f 3d 9a 90 60 3d de 46 85 3d 2d 95 8e 3d
       0.046743937 0.054825403 0.065076575 0.06962047
0003b0 92 3a 60 3d 79 e2 6d 3d ef ce 3b 3d 4b 13 55 3d
       0.054743357 0.05807731 0.045851644 0.052020352
0003c0 6b 89 6d 3d 35 5e 63 3d d6 65 72 3d 2e 5b 86 3d
       0.05799238 0.055509765 0.05917915 0.0656036
0003d0 66 e8 92 3d 77 c0 f0 3c 88 3a 87 3d bc 44 83 3d
       0.07173233 0.02938865 0.06602961 0.064095944
0003e0 40 99 b4 3d 35 72 e9 3a 24 43 fa 3c e4 f2 e0 3c
       0.088182926 0.0017810526 0.030549593 0.02745957
0003f0 9a d2 89 3d d9 1f 7b 3c 23 49 6f 3d 5c 81 8b 3d
       0.06729622 0.015327417 0.058419358 0.06811783

dense/bias f4 [10]
000000 e1 c1 a7 3c 9b 37 99 ba 96 0f 51 3d d2 f0 d1 3c
       0.02047819 -0.0011689545 0.051040255 0.025627527
000010 12 85 55 3d ff 90 c5 3c 47 86 b2 3c fe c3 b9 3c
       0.05212886 0.024116991 0.021792544 0.022676464
000020 b8 c8 d3 3c 48 cf 58 3d
       0.025852546 0.052932054

TensorArrayV2_1 f4 [20, 1, 64]
000000 00 00 00 00 00 00 00 00 00 00 00 00 00 00 00 00
       0.0 0.0 0.0 0.0
000010 00 00 00 00 00 00 00 00 00 00 00 00 00 00 00 00
       0.0 0.0 0.0 0.0
000020 00 00 00 00 00 00 00 00 00 00 00 00 00 00 00 00
       0.0 0.0 0.0 0.0
000030 00 00 00 00 00 00 00 00 00 00 00 00 00 00 00 00
       0.0 0.0 0.0 0.0
000040 00 00 00 00 00 00 00 00 00 00 00 00 00 00 00 00
       0.0 0.0 0.0 0.0
000050 00 00 00 00 00 00 00 00 00 00 00 00 00 00 00 00
       0.0 0.0 0.0 0.0
000060 00 00 00 00 00 00 00 00 00 00 00 00 00 00 00 00
       0.0 0.0 0.0 0.0
000070 00 00 00 00 00 00 00 00 00 00 00 00 00 00 00 00
       0.0 0.0 0.0 0.0
000080 00 00 00 00 00 00 00 00 00 00 00 00 00 00 00 00
       0.0 0.0 0.0 0.0
000090 00 00 00 00 00 00 00 00 00 00 00 00 00 00 00 00
       0.0 0.0 0.0 0.0
0000a0 00 00 00 00 00 00 00 00 00 00 00 00 00 00 00 00
       0.0 0.0 0.0 0.0
0000b0 00 00 00 00 00 00 00 00 00 00 00 00 00 00 00 00
       0.0 0.0 0.0 0.0
0000c0 00 00 00 00 00 00 00 00 00 00 00 00 00 00 00 00
       0.0 0.0 0.0 0.0
0000d0 00 00 00 00 00 00 00 00 00 00 00 00 00 00 00 00
       0.0 0.0 0.0 0.0
0000e0 00 00 00 00 00 00 00 00 00 00 00 00 00 00 00 00
       0.0 0.0 0.0 0.0
0000f0 00 00 00 00 00 00 00 00 00 00 00 00 00 00 00 00
       0.0 0.0 0.0 0.0
000100 00 00 00 00 00 00 00 00 00 00 00 00 00 00 00 00
       0.0 0.0 0.0 0.0
000110 00 00 00 00 00 00 00 00 00 00 00 00 00 00 00 00
       0.0 0.0 0.0 0.0
000120 00 00 00 00 00 00 00 00 00 00 00 00 00 00 00 00
       0.0 0.0 0.0 0.0
000130 00 00 00 00 00 00 00 00 00 00 00 00 00 00 00 00
       0.0 0.0 0.0 0.0
000140 00 00 00 00 00 00 00 00 00 00 00 00 00 00 00 00
       0.0 0.0 0.0 0.0
000150 00 00 00 00 00 00 00 00 00 00 00 00 00 00 00 00
       0.0 0.0 0.0 0.0
000160 00 00 00 00 00 00 00 00 00 00 00 00 00 00 00 00
       0.0 0.0 0.0 0.0
000170 00 00 00 00 00 00 00 00 00 00 00 00 00 00 00 00
       0.0 0.0 0.0 0.0
000180 00 00 00 00 00 00 00 00 00 00 00 00 00 00 00 00
       0.0 0.0 0.0 0.0
000190 00 00 00 00 00 00 00 00 00 00 00 00 00 00 00 00
       0.0 0.0 0.0 0.0
0001a0 00 00 00 00 00 00 00 00 00 00 00 00 00 00 00 00
       0.0 0.0 0.0 0.0
0001b0 00 00 00 00 00 00 00 00 00 00 00 00 00 00 00 00
       0.0 0.0 0.0 0.0
0001c0 00 00 00 00 00 00 00 00 00 00 00 00 00 00 00 00
       0.0 0.0 0.0 0.0
0001d0 00 00 00 00 00 00 00 00 00 00 00 00 00 00 00 00
       0.0 0.0 0.0 0.0
0001e0 00 00 00 00 00 00 00 00 00 00 00 00 00 00 00 00
       0.0 0.0 0.0 0.0
0001f0 00 00 00 00 00 00 00 00 00 00 00 00 00 00 00 00
       0.0 0.0 0.0 0.0
000200 00 00 00 00 00 00 00 00 00 00 00 00 00 00 00 00
       0.0 0.0 0.0 0.0
000210 00 00 00 00 00 00 00 00 00 00 00 00 00 00 00 00
       0.0 0.0 0.0 0.0
000220 00 00 00 00 00 00 00 00 00 00 00 00 00 00 00 00
       0.0 0.0 0.0 0.0
000230 00 00 00 00 00 00 00 00 00 00 00 00 00 00 00 00
       0.0 0.0 0.0 0.0
000240 00 00 00 00 00 00 00 00 00 00 00 00 00 00 00 00
       0.0 0.0 0.0 0.0
000250 00 00 00 00 00 00 00 00 00 00 00 00 00 00 00 00
       0.0 0.0 0.0 0.0
000260 00 00 00 00 00 00 00 00 00 00 00 00 00 00 00 00
       0.0 0.0 0.0 0.0
000270 00 00 00 00 00 00 00 00 00 00 00 00 00 00 00 00
       0.0 0.0 0.0 0.0
000280 00 00 00 00 00 00 00 00 00 00 00 00 00 00 00 00
       0.0 0.0 0.0 0.0
000290 00 00 00 00 00 00 00 00 00 00 00 00 00 00 00 00
       0.0 0.0 0.0 0.0
0002a0 00 00 00 00 00 00 00 00 00 00 00 00 00 00 00 00
       0.0 0.0 0.0 0.0
0002b0 00 00 00 00 00 00 00 00 00 00 00 00 00 00 00 00
       0.0 0.0 0.0 0.0
0002c0 00 00 00 00 00 00 00 00 00 00 00 00 00 00 00 00
       0.0 0.0 0.0 0.0
0002d0 00 00 00 00 00 00 00 00 00 00 00 00 00 00 00 00
       0.0 0.0 0.0 0.0
0002e0 00 00 00 00 00 00 00 00 00 00 00 00 00 00 00 00
       0.0 0.0 0.0 0.0
0002f0 00 00 00 00 00 00 00 00 00 00 00 00 00 00 00 00
       0.0 0.0 0.0 0.0
000300 00 00 00 00 00 00 00 00 00 00 00 00 00 00 00 00
       0.0 0.0 0.0 0.0
000310 00 00 00 00 00 00 00 00 00 00 00 00 00 00 00 00
       0.0 0.0 0.0 0.0
000320 00 00 00 00 00 00 00 00 00 00 00 00 00 00 00 00
       0.0 0.0 0.0 0.0
000330 00 00 00 00 00 00 00 00 00 00 00 00 00 00 00 00
       0.0 0.0 0.0 0.0
000340 00 00 00 00 00 00 00 00 00 00 00 00 00 00 00 00
       0.0 0.0 0.0 0.0
000350 00 00 00 00 00 00 00 00 00 00 00 00 00 00 00 00
       0.0 0.0 0.0 0.0
000360 00 00 00 00 00 00 00 00 00 00 00 00 00 00 00 00
       0.0 0.0 0.0 0.0
000370 00 00 00 00 00 00 00 00 00 00 00 00 00 00 00 00
       0.0 0.0 0.0 0.0
000380 00 00 00 00 00 00 00 00 00 00 00 00 00 00 00 00
       0.0 0.0 0.0 0.0
000390 00 00 00 00 00 00 00 00 00 00 00 00 00 00 00 00
       0.0 0.0 0.0 0.0
0003a0 00 00 00 00 00 00 00 00 00 00 00 00 00 00 00 00
       0.0 0.0 0.0 0.0
0003b0 00 00 00 00 00 00 00 00 00 00 00 00 00 00 00 00
       0.0 0.0 0.0 0.0
0003c0 00 00 00 00 00 00 00 00 00 00 00 00 00 00 00 00
       0.0 0.0 0.0 0.0
0003d0 00 00 00 00 00 00 00 00 00 00 00 00 00 00 00 00
       0.0 0.0 0.0 0.0
0003e0 00 00 00 00 00 00 00 00 00 00 00 00 00 00 00 00
       0.0 0.0 0.0 0.0
0003f0 00 00 00 00 00 00 00 00 00 00 00 00 00 00 00 00
       0.0 0.0 0.0 0.0

sequential/dense/MatMul f4 [10, 64]
000000 78 67 45 be 2a f9 35 3e 2f 8e 84 be 1c ae dd 3a
       -0.19277751 0.1777083 -0.25889727 0.001691285
000010 b8 a6 8f 3e b9 17 8f bd 80 de 9b 3e 93 ee 64 bd
       0.28056884 -0.069869466 0.30443192 -0.055891585
000020 43 89 60 be 0f 26 f2 3d 9a 4e 03 be f5 4e 10 be
       -0.21927361 0.11823665 -0.12822953 -0.1409262
000030 a9 12 74 3e 01 7f 15 bd 60 b1 27 3e 5c ab 88 bd
       0.23835243 -0.036498073 0.16376257 -0.06673309
000040 18 a6 e0 bb 90 f4 3d 3c 84 b5 18 be cd 31 11 3d
       -0.0068557374 0.011593953 -0.14912993 0.035447884
000050 54 7d a8 be 66 26 1d bd 2a b3 b6 be b5 0f 1b 3e
       -0.32908118 -0.038366698 -0.35683566 0.1514271
000060 af b3 a9 bd 4c 32 4b be 32 fd e8 bd 6c 07 8d 3e
       -0.08286225 -0.19843405 -0.11376418 0.27544725
000070 24 d1 04 bc 80 1b a1 be 9e bf 39 3e ff 68 aa 3e
       -0.008106504 -0.31466293 0.18139502 0.3328323
000080 55 ab 81 3e a9 33 33 be a7 30 25 bd 03 71 83 3d
       0.25326028 -0.17500176 -0.0403296 0.0641804
000090 2f fc d2 bd 3b e4 75 be 5f 38 59 be 13 b7 0b be
       -0.103020065 -0.24012844 -0.2121291 -0.13644056
0000a0 f5 e7 6c 3e 68 bb 6d 3e 3d 9d 9f 3d 89 0c 01 be
       0.2313536 0.23216021 0.07793663 -0.12602438
0000b0 22 e0 46 be ac 4a a1 bd b2 ba 29 bd 92 72 43 be
       -0.19421437 -0.07875571 -0.041437812 -0.19086674
0000c0 a3 02 45 bd b0 24 14 be 31 bc ab be e8 11 d1 3c
       -0.048098218 -0.1446712 -0.33542016 0.025521234
0000d0 80 9f 9f bd c0 cc 96 3d 02 c8 9d be 2e f1 2b 3e
       -0.07794094 0.07363272 -0.30816656 0.16791221
0000e0 b9 e6 ce 3a 01 1d 46 bc 3e 8a f5 bd 46 c8 9b 3e
       0.0015785313 -0.012091876 -0.11989258 0.30426234
0000f0 3f 47 10 3e ee b7 24 3e 31 c4 97 3e f8 02 27 3e
       0.14089678 0.16085789 0.2964187 0.16309726
000100 ad 66 bc 3d af c0 cf 3d 16 3f df bd a9 4a 5d 3e
       0.09199271 0.10144173 -0.109007046 0.21610512
000110 be 6e 79 3e 72 4c 07 be 7d 25 0f be 42 4d 0e be
       0.24358651 -0.13212755 -0.13979144 -0.13896659
000120 40 ff 61 3e 4e 54 5c be a2 17 f8 bd 49 d9 3f 3e
       0.22070026 -0.21516535 -0.121138826 0.18735231
000130 02 2b 5d 3e 03 96 a3 be 45 bf ab 3d a9 d8 bd 3d
       0.21598437 -0.31950387 0.08386091 0.0926984
000140 01 b0 5b 3e b2 2c 4d be 4f 49 19 3e 74 3b 5c be
       0.21453859 -0.20036581 0.14969371 -0.21507055
000150 31 2f 47 bb 75 4e 88 be e2 1b 28 be 05 a7 a8 bd
       -0.0030393119 -0.26622358 -0.16416886 -0.082349814
000160 ee 07 dd bd 25 86 30 be 7a 2d f4 bd 9d 66 49 3e
       -0.10792528 -0.17238672 -0.119227365 0.1966805
000170 2d 2a 61 be a7 b6 42 3e 46 f6 a9 be 09 d6 4c 3e
       -0.21988745 0.19014989 -0.33195704 0.20003523
000180 94 fb b5 bd 0b 98 09 be 50 09 62 3b d0 bd 86 3e
       -0.08885875 -0.13436906 0.0034490414 0.2631669
000190 ae 6f 3d 3e 33 40 25 be 7e 97 1c bd 0b f1 14 3e
       0.18499634 -0.16137771 -0.03823041 0.14545076
0001a0 db ee 26 3e 89 18 2a be b2 10 83 3e f7 b6 56 be
       0.16302054 -0.16610922 0.25598675 -0.20968233
0001b0 8e f8 df bd 03 7d c9 bd 89 a3 0d bd 1d bf 93 3e
       -0.1093608 -0.09838297 -0.034579787 0.28856745
0001c0 0c 42 61 be 46 fd f2 bd f4 81 1c be 01 b9 fc 3d
       -0.21997851 -0.11864714 -0.15283948 0.12339974
0001d0 f7 fc a5 3e 38 e0 16 3d 78 84 ac be 90 f7 70 3e
       0.3241956 0.036834925 -0.33694816 0.23531938
0001e0 7e a5 c8 bc 4d b7 eb bc 55 f9 b2 bd 42 30 3a be
       -0.024492975 -0.028773928 -0.087389626 -0.18182471
0001f0 6d 9f 4b be 44 04 bb be 1d 83 41 3e 9c 96 2e 3e
       -0.19885035 -0.36526692 0.18897672 0.1704964
000200 e1 f7 fd bd 31 b6 a9 3c 1d 7f 98 3e 19 ba 36 3e
       -0.12400795 0.020716758 0.2978448 0.17844428
000210 9b c3 8a bd ae 87 ae 3e 06 70 b0 be ef f7 a0 bd
       -0.0677559 0.3408789 -0.34460467 -0.078597896
000220 d2 f8 c8 3c 37 c6 31 bd 81 24 a7 3b 3a f3 ae be
       0.02453271 -0.043401923 0.005100787 -0.34169942
000230 22 da b8 bd ed 15 42 bd b0 7d 3e be af 4c 9c bd
       -0.090259805 -0.04738419 -0.18602633 -0.07631814
000240 6d e5 c4 3d 8f 21 12 be 0e f1 36 3e f5 95 b7 3e
       0.09614072 -0.14270614 0.17865393 0.35856596
000250 f6 3d 0b 3e 17 2d 61 3e 3f b9 5d bd 6e 9d 8b bd
       0.13597855 0.21989857 -0.054131743 -0.06817137
000260 8d f8 ef 3b 77 e9 45 3c 54 c4 57 3e fc 26 a4 be
       0.0073233307 0.012079588 0.21070987 -0.32060993
000270 0a 9e 1a 3d f6 e0 03 3e e4 7d ba bd 0b 7d ac bd
       0.037748374 0.12878785 -0.09106043 -0.084222876
000280 2c 3d 91 be 38 1c 65 bd 5c 46 84 3d c3 b6 81 be
       -0.28366983 -0.055935115 0.064587325 -0.2533475
000290 d8 d0 b7 3e 7e dc 92 3c 8d 8d 32 3e a8 e0 8a 3e
       0.35901523 0.017927404 0.1743681 0.27124524
0002a0 95 66 83 3b af 9f 7b be 93 e0 5f be d7 42 41 3c
       0.0040100315 -0.24572633 -0.21863012 0.011795721
0002b0 37 7c 29 be 63 01 9e 3d 1b eb 51 3d 76 b5 19 be
       -0.1655129 0.07715108 0.051249605 -0.15010628
0002c0 64 7d 96 be 0f 48 b4 be 5d f3 21 3e 04 e0 01 be
       -0.2939254 -0.35211226 0.15815492 -0.12683111
0002d0 01 f9 f4 3d bd b1 25 be 36 03 88 3e 21 7e 7f be
       0.11961556 -0.16181083 0.2656495 -0.24950458
0002e0 81 d8 b9 be 75 14 10 be 7a 2d 8b be 37 64 c8 3d
       -0.36297992 -0.14070304 -0.27183133 0.097847395
0002f0 2e 9b 72 bd 37 be 37 3e 46 68 2c be 02 48 22 3e
       -0.059230022 0.17943655 -0.16836652 0.15847781
000300 fc 1a 08 be 64 db a7 3e d3 60 71 be 6d b9 8b 3e
       -0.13291544 0.3278457 -0.23572092 0.27289906
000310 1c 34 31 3e 76 91 a8 be b8 09 74 3e 3f 95 85 3e
       0.17305034 -0.32923478 0.23831832 0.26090428
000320 2e 07 e2 3d eb 8f 6b 3d 0c 6d 44 be 69 50 db 3d
       0.11036526 0.057510298 -0.19182223 0.107086964
000330 4e d7 21 3e bd 63 98 be b8 17 13 bb dd 37 cb bc
       0.15804788 -0.29763594 -0.0022444557 -0.024806911
000340 9c 73 a3 3d 9d 0e 06 bc 17 ca 28 3e e8 fc 87 bd
       0.07981035 -0.008182195 0.16483341 -0.06640035
000350 b0 32 68 be 3b 5b b8 bd 8e 1e d7 3d 69 47 a4 3d
       -0.22675586 -0.09001776 0.10503875 0.08021433
000360 25 5f 4a 3e 16 66 93 3e 1d 41 70 bc c1 c2 5f 3e
       0.19762857 0.28788823 -0.014663962 0.21851636
000370 25 8a 87 be 73 9b 45 bd 2d 10 a1 be e8 2f 6f 3e
       -0.26472583 -0.04824395 -0.31457654 0.23358119
000380 07 8c 70 3e c0 76 7e be e8 4c 0d be 1e 47 ad bd
       0.23490916 -0.24849987 -0.13798869 -0.0846083
000390 cb a2 b8 bd 1a 0d ef 3d 26 09 4e 3d f7 22 29 3e
       -0.09015425 0.11672421 0.050301693 0.16517244
0003a0 00 f1 50 3e 38 ea 81 3e d8 00 a2 3e 9f 92 3a bd
       0.20404434 0.25374007 0.3164127 -0.045549985
0003b0 e0 04 a0 be c2 4d 35 bc 24 22 80 be 72 68 94 3e
       -0.3125372 -0.011065902 -0.25026047 0.28985935
0003c0 5e d8 7d 3d d6 97 36 be 18 5e a6 be da 32 9f bd
       0.061973922 -0.17831358 -0.32493663 -0.07773371
0003d0 59 f9 f1 bd 88 83 cf bd 4f 9c c3 bd 28 ed 00 be
       -0.118151374 -0.101325095 -0.09551298 -0.12590468
0003e0 25 15 b0 bd f3 5f 7f 3e 3e c0 53 3d e2 cf 99 3e
       -0.08597783 0.24938945 0.05169701 0.30041414
0003f0 d4 bc 2a be 4a ec 15 bd be 00 88 3e f4 a7 ab 3d
       -0.16673595 -0.036602296 0.26563066 0.08381644

sequential/dense_1/MatMul f4 [1, 10]
000000 77 db a4 be 3c e9 19 be 98 3c f0 3e 21 74 1d bf
       -0.32198688 -0.15030378 0.4692123 -0.61505324
000010 39 bd a8 3e f8 62 fb be 3e 18 bb be d5 ba 90 be
       0.32956865 -0.49098945 -0.36541933 -0.28267542
000020 97 7c 3f bf f4 9b 06 3f
       -0.74799484 0.52581716

lstm/lstm_cell_1/bias1 f4 [256]
000000 9b 9a 6b 3c be 64 74 3c 17 d4 b3 3c 4c 81 9c 3b
       0.014380123 0.014916597 0.021951718 0.0047761556
000010 fd 4e a4 3c 74 29 4c 3d 32 c7 31 3d 49 64 20 3d
       0.020057196 0.04984422 0.043402858 0.03915814
000020 14 eb 32 3d 6c 41 66 3d cb 99 ec 3b ce b8 83 3d
       0.04368122 0.056214735 0.007220482 0.06431733
000030 f5 b3 b6 3d 34 72 4e 3d 0e 14 4e 3d 1d 2f 08 3d
       0.08921043 0.05040188 0.050312094 0.033248056
000040 45 31 0b 3d ba 20 17 3d 46 26 46 3b 2f 66 63 3d
       0.033982534 0.036896445 0.0030235215 0.05551737
000050 fc bd 29 3d 27 93 29 3d d3 af 10 3c 53 62 1d 3d
       0.04144095 0.0414001 0.008830982 0.038423847
000060 c6 4d 57 3d c0 71 3a 3d fa a4 5d 3c 1f 63 fd 3c
       0.052564405 0.045518637 0.013528103 0.030931054
000070 61 a0 24 3d 8b 77 7f 3c 4f 31 9c 3c 42 8f eb 3b
       0.04019201 0.015592466 0.01906648 0.0071887085
000080 63 bb 42 3d 78 99 c0 3c 1c 02 04 3d f3 9f 9a 3c
       0.047541987 0.02351068 0.032228574 0.018875098
000090 0b be 63 3d 8c 7b 2b 3d 0d 27 07 3d b6 88 d0 3c
       0.05560116 0.04186587 0.032996226 0.025455814
0000a0 a0 de 2a 3d c5 5d 45 3d ad bd 4c 3d 54 23 58 3d
       0.041716218 0.04818513 0.049985576 0.052768067
0000b0 e1 35 39 3d 22 2f 27 3d 19 ae 31 3d 32 f7 39 3d
       0.0452174 0.040816434 0.043378923 0.04540176
0000c0 c2 be 3e 3d 33 58 08 3d 2d d7 58 3d 4f fa 61 3d
       0.04656864 0.03328724 0.052939583 0.055170354
0000d0 eb 15 81 3d a0 d0 90 3c d5 ed 8e 3d 27 88 56 3d
       0.06303009 0.017677605 0.069789566 0.05237594
0000e0 7f f7 9f 3d 31 fa 4e 3b fe c7 f3 3c 46 ce de 3c
       0.07810878 0.0031582231 0.02975845 0.027197968
0000f0 c7 6c 5e 3d e8 16 5a 3a 3b a3 48 3d a8 f6 5e 3d
       0.054302957 0.00083194533 0.048983794 0.05443445
000100 77 78 81 3f ae b7 80 3f 16 4a 81 3f 86 89 7d 3f
       1.0114888 1.0056055 1.0100734 0.9903797
000110 9c 01 82 3f b8 18 86 3f 16 44 85 3f 4c 22 85 3f
       1.0156741 1.0476294 1.0411403 1.0401092
000120 9e 20 85 3f 6a 3d 87 3f e0 5d 7e 3f c5 c6 87 3f
       1.0400579 1.0565617 0.9936199 1.0607535
000130 39 4a 8a 3f 0e b4 85 3f cd e5 86 3f 68 13 84 3f
       1.0803901 1.0445573 1.053888 1.0318422
000140 41 51 84 3f a7 e4 83 3f 67 73 80 3f 4d d7 86 3f
       1.0337297 1.0304154 1.0035218 1.0534455
000150 99 18 85 3f cf cf 84 3f e9 17 81 3f 10 89 84 3f
       1.0398132 1.0375918 1.0085422 1.0354328
000160 96 24 86 3f 38 7b 85 3f 8a 96 80 3f 6a de 82 3f
       1.0479915 1.0428228 1.0045941 1.0224125
000170 0a ae 84 3f 3c 7b 81 3f 07 05 82 3f c8 76 81 3f
       1.0365613 1.0115733 1.0157784 1.0114374
000180 36 4a 86 3f 12 d4 82 3f 51 90 84 3f b2 ab 81 3f
       1.0491397 1.0220969 1.0356542 1.0130522
000190 a0 40 87 3f a8 16 85 3f ab b4 83 3f d9 ac 83 3f
       1.0566597 1.0397539 1.028951 1.0287124
0001a0 af 53 84 3f fd 9b 85 3f 95 da 85 3f ff 57 86 3f
       1.0338038 1.0438229 1.0457331 1.0495604
0001b0 61 1e 85 3f 27 17 85 3f be 39 85 3f 18 ef 85 3f
       1.0399896 1.039769 1.0408247 1.0463591
0001c0 14 d0 85 3f 0e 86 83 3f b5 a2 86 3f 88 61 86 3f
       1.0454125 1.0275285 1.0518404 1.0498514
0001d0 29 ca 86 3f 4e b9 81 3f 9f ca 87 3f 0e 6a 86 3f
       1.0530444 1.0134676 1.060871 1.0501115
0001e0 bf a4 87 3f 60 f2 7e 3f d5 48 83 3f 80 0b 82 3f
       1.0597152 0.99588585 1.0256602 1.015976
0001f0 10 48 86 3f 13 69 7e 3f 99 37 86 3f 54 b3 86 3f
       1.0490742 0.9937908 1.0485717 1.0523477
000200 d3 5e 98 3a 4e ef bb bb 6c 80 13 bc 21 e9 11 3b
       0.001162494 -0.0057353145 -0.009002786 0.00222642
000210 e9 e0 97 bc 8a 1b 85 3b b8 11 8d 3b 35 1f 52 3a
       -0.018539863 0.004062121 0.0043050908 0.00080155145
000220 25 a4 64 bb 4e 07 b6 ba 09 bc 2d bc 05 4c 36 b9
       -0.0034887877 -0.0013887675 -0.010603913 -0.00017385192
000230 35 fb df bb 2b 91 d1 3a 9f ff 7c ba 9b 24 03 3c
       -0.006835366 0.0015988698 -0.00096511276 0.008004333
000240 21 9f 07 3d 7b 3b 15 bc d0 2b 11 3d d0 78 18 38
       0.03311074 -0.0091084195 0.035442173 3.635214e-05
000250 f4 ed 98 b9 c8 70 b4 b9 d6 ba aa bc 05 63 15 3c
       -0.00029168988 -0.00034416304 -0.020841043 0.009117846
000260 62 23 3e 3c 59 c5 c4 3b dd 51 70 bc 65 79 2c bc
       0.011605116 0.006004971 -0.014667955 -0.01052699
000270 1e 19 38 bb 28 87 ad bb 9c 71 04 bc e1 e5 cc 3c
       -0.0028091143 -0.005295653 -0.008083727 0.025011959
000280 5b 56 92 ba f3 23 14 bd 8a 0f ea bc 76 3d 2b b9
       -0.0011164652 -0.036167096 -0.028571863 -0.00016330727
000290 fa bf 22 3c f0 86 5b 3a d1 ce be bb 51 6b 08 3c
       0.009933466 0.0008374294 -0.0058229943 0.0083263675
0002a0 aa 7c f9 3c b0 ac de 3a b4 cd 65 ba 89 a1 ad ba
       0.030454952 0.0016988721 -0.0008766309 -0.0013246994
0002b0 ae 6e 8e bb 8a f7 6a 3b a6 cc 7e bb d1 ad 62 ba
       -0.00434669 0.0035853111 -0.0038879304 -0.00086471165
0002c0 26 85 21 3b 75 fa 18 b9 ce a0 ca bb de 52 5b 39
       0.0024646013 -0.00014589152 -0.00618372 0.00020916338
0002d0 62 a9 f7 39 1d 23 4a bb ea d1 16 bc 9d 3b 21 bb
       0.0004723771 -0.0030843683 -0.009205321 -0.0024602183
0002e0 59 de fb 3a 2e a1 f9 ba df b0 b8 3b 2b c6 30 3a
       0.0019216045 -0.0019045228 0.005636319 0.00067433965
0002f0 8a 8a 38 b9 3f f1 91 3c b2 8e 99 3a e0 f8 70 ba
       -0.00017599217 0.01781523 0.00117155 -0.00091923587
000300 be 83 d0 3c f7 7b 7a 3c 9f 50 1a 3d 01 39 f0 3b
       0.025453445 0.015288345 0.037674543 0.007331014
000310 9e f9 d5 3c f5 e5 6f 3d 44 b8 5a 3d bd 76 45 3d
       0.026120003 0.058568913 0.053398386 0.04820894
000320 38 4a 6f 3d ce ca 85 3d ba 14 e1 3b 26 8a a7 3d
       0.05842039 0.065328225 0.006868926 0.081806466
000330 8f 9c c0 3d bb d2 71 3d ff 7b 8f 3d ce 3b 35 3d
       0.09404861 0.05903886 0.07006072 0.044246487
000340 58 8d 17 3d 24 99 49 3d 47 d1 93 3b b0 79 90 3d
       0.03700003 0.049218312 0.004511032 0.0705446
000350 8c 39 60 3d c6 00 6f 3d 97 cc 5c 3c d7 6f 42 3d
       0.05474238 0.058350347 0.013476512 0.04746994
000360 0f 6d 80 3d 81 1f 40 3d a4 2f a8 3c b1 28 43 3d
       0.06270801 0.046905044 0.02053053 0.04764623
000370 03 87 31 3d 36 95 81 3c 2e 52 dd 3c c1 fc 7a 3c
       0.043341648 0.01581822 0.027016725 0.01531905
000380 13 c0 82 3d 79 7d 95 3c 9b 76 34 3d f4 6c d8 3c
       0.063842915 0.018248307 0.044058423 0.02641914
000390 2b 1f 9a 3d 74 7f 68 3d d8 be 14 3d 8e 53 35 3d
       0.07525476 0.056762174 0.036314815 0.044269137
0003a0 92 76 3f 3d 9a 90 60 3d de 46 85 3d 2d 95 8e 3d
       0.046743937 0.054825403 0.065076575 0.06962047
0003b0 92 3a 60 3d 79 e2 6d 3d ef ce 3b 3d 4b 13 55 3d
       0.054743357 0.05807731 0.045851644 0.052020352
0003c0 6b 89 6d 3d 35 5e 63 3d d6 65 72 3d 2e 5b 86 3d
       0.05799238 0.055509765 0.05917915 0.0656036
0003d0 66 e8 92 3d 77 c0 f0 3c 88 3a 87 3d bc 44 83 3d
       0.07173233 0.02938865 0.06602961 0.064095944
0003e0 40 99 b4 3d 35 72 e9 3a 24 43 fa 3c e4 f2 e0 3c
       0.088182926 0.0017810526 0.030549593 0.02745957
0003f0 9a d2 89 3d d9 1f 7b 3c 23 49 6f 3d 5c 81 8b 3d
       0.06729622 0.015327417 0.058419358 0.06811783

while/MatMul_1 f4 [256, 64]
000000 ea ae 45 bd b1 66 81 3c ee ef 66 bb e4 82 d6 3c
       -0.048262514 0.015796037 -0.0035238224 0.02618546
000010 5e 71 59 3d 6e 5d 05 3d 2b e3 d5 bc 7f 8f c4 bd
       0.05308663 0.032559805 -0.026109299 -0.09597682
000020 c6 3f da 3d 95 91 39 bc 4d 6e d6 3d 1b 87 9a bd
       0.10656695 -0.011326213 0.10470257 -0.075453006
000030 69 30 cd bd dd 2e 95 bc f1 a2 c2 3d 15 2e 05 3d
       -0.10018999 -0.018210823 0.09503735 0.03251465
000040 2d 8f 90 3d 4f ad 49 bd c3 56 49 3d 9b 4b 80 bc
       0.070585586 -0.049237546 0.049155008 -0.015661051
000050 d6 4a 36 bb aa 8a 5a bd 40 c5 37 bd 9b 9a 40 bc
       -0.0027815602 -0.053354897 -0.044865847 -0.011755611
000060 c2 cb 1c bd 22 d8 cf 3d af 13 2d bd 23 d1 67 3d
       -0.038280256 0.10148646 -0.0422551 0.056595933
000070 8c dc 53 3c 84 db ba bd 20 12 bf 3d c9 3a 8f bc
       0.012931 -0.091239005 0.09329629 -0.017484086
000080 91 54 1c bc bc 50 a4 bd a4 16 c9 3d fe 58 f8 3a
       -0.009541647 -0.08023211 0.098187715 0.001894742
000090 fa 3a 6a bd 7a 90 8a 3a 65 e3 8a bd fc 82 a5 3d
       -0.05718515 0.0010571622 -0.06781653 0.08081624
0000a0 59 5d 44 3d e7 6d 8e bd 64 e0 7c bd c2 75 fd 3d
       0.047940586 -0.06954556 -0.061737433 0.12375976
0000b0 21 ef 8d 3d c6 4b bd bd c0 73 ad 3c 1f 26 05 bd
       0.06930376 -0.09242968 0.021173358 -0.03250706
0000c0 9b 05 11 3d 8e fc 9f bd cb 63 c8 bc f2 2c ea bc
       0.035405736 -0.07811843 -0.024461647 -0.028585885
0000d0 e0 b8 bd bc 4b 9d 7f bc 4f 39 0e bc 06 88 15 bc
       -0.023159444 -0.015601466 -0.008680656 -0.009126669
0000e0 f3 78 f5 bc 24 dd c4 3b f0 5b 1d bd bd 53 0e 3d
       -0.0299649 0.0060078073 -0.038417757 0.034747828
0000f0 9c e5 76 3d f1 b7 99 bc 73 5e c9 3d 6e b9 cd bd
       0.060277566 -0.018764468 0.09832468 -0.100451335
000100 6d ad 13 3d 50 83 c0 3d 28 b7 89 bd 4d 8c 29 3e
       0.036054064 0.09400046 -0.067243874 0.16557427
000110 9a 56 b6 3d 59 eb 52 bd e3 23 44 bd da c0 1c 3e
       0.08903237 -0.051493976 -0.047885787 0.15307942
000120 0b 53 40 3e 3e e5 25 3d c5 4a ce 3b c2 18 11 3e
       0.18781678 0.040501826 0.0062955343 0.141696
000130 64 5f b3 3d d4 0b 7a bd cd 41 cb 3d 87 c8 8f bd
       0.08758429 -0.061046436 0.0992466 -0.070206694
000140 40 f2 e2 bd 36 1b a9 3d 12 76 23 3d e9 db 06 bd
       -0.11081362 0.08257143 0.039907522 -0.032924566
000150 62 4a f5 3b b1 ea b9 bd 4d 25 72 3a c2 7b 79 3e
       0.0074856738 -0.09077967 0.00092371256 0.24363616
000160 6e 38 fb 3b 8a e5 50 3d 25 c0 16 3d 15 d3 2e 3d
       0.007666639 0.051000156 0.036804337 0.042681772
000170 9f 7b 9c 3c c4 07 b4 bd 1f 4f 31 be ab e3 71 3d
       0.019101916 -0.08790544 -0.17315339 0.05905501
000180 2f db af 3a 23 f0 ba bd 69 d1 bd bd 8f 08 99 3d
       0.0013416762 -0.09127834 -0.092684574 0.074723355
000190 5f ff 93 bd 9e 9c 14 3c 11 cb 1b be dc 0b 22 be
       -0.072264425 0.009070544 -0.15214182 -0.15824836
0001a0 ca ce 81 bd dd bf b0 3d c3 af 4c 3c d5 2b df 3d
       -0.0633827 0.08630345 0.012493077 0.10897032
0001b0 67 a5 44 be f0 10 a5 3d 3a 9c 3b bd 17 70 3a 3e
       -0.19203721 0.08059871 -0.045803286 0.18206821
0001c0 ad d2 b4 3d 47 13 83 3d 11 1f 30 be b4 5a 0e be
       0.08829246 0.06400161 -0.17199351 -0.13901788
0001d0 24 9e 80 3c 27 2e ac 3d a4 95 1d bd 04 b1 45 bd
       0.015700407 0.0840724 -0.038472787 -0.04826452
0001e0 9f bd d8 3d 42 98 13 3e 6f b8 0d bd 56 97 f7 bb
       0.10583042 0.1441355 -0.034599718 -0.0075558824
0001f0 af c8 24 3d 39 1a ac bc 1f 6b 09 bd 9e fb d6 bc
       0.04023045 -0.021008598 -0.033549424 -0.026243027
000200 c5 10 03 be 56 f6 81 3d 0d 1c 03 3e 97 c5 b1 3d
       -0.12799366 0.06345813 0.1280367 0.086802654
000210 61 96 0f be c5 1e 07 3e ea 13 b3 bd ba c7 2d be
       -0.14022209 0.13195331 -0.08744033 -0.16970721
000220 35 ec 89 bd 57 d2 76 bd 7e c3 be bd 28 ef 55 bd
       -0.06734506 -0.06025919 -0.09314631 -0.05223003
000230 63 ef 75 3c ee a4 86 3d 64 5c 64 bd 36 36 ef 3d
       0.0150106875 0.065744266 -0.055752173 0.11680262
000240 f2 70 8a 3e 3e 69 84 bd ea 1f 92 3b e3 00 dd 3d
       0.27039295 -0.06465386 0.004459371 0.10791185
000250 65 7e b3 bd 1c 55 7b 3d 7a 43 63 3d a1 1b 48 3c
       -0.08764342 0.061360464 0.055484273 0.0122136185
000260 2f f9 73 3c 81 9f cc bd 02 4a e6 3c bf a6 b9 bc
       0.014890953 -0.099913605 0.028111462 -0.022662519
000270 ea 4d ac 3c 79 4c a0 bd bd 32 4d bd 4a e6 4e 3d
       0.021033246 -0.07827086 -0.050097216 0.05051259
000280 ee 18 f3 bc 1f 12 2b bd 58 d1 74 be f9 e6 9e bd
       -0.029674973 -0.04176533 -0.23907983 -0.07758898
000290 87 c0 b5 3d 53 59 97 3d 06 15 1a bd 34 fe 31 3e
       0.08874612 0.07390084 -0.037617706 0.17382127
0002a0 85 af 2d 3d 4c 95 13 bc 20 7c 32 3d 82 75 3c be
       0.042403717 -0.009007763 0.043575406 -0.184042
0002b0 2b 94 b6 3d f8 4c 10 3d 0f 62 f7 bc 23 55 01 be
       0.089149795 0.035229653 -0.030198125 -0.12630133
0002c0 2c d0 07 3d 04 f4 f9 3b 6a cf c3 3c ba 14 40 bd
       0.033157513 0.007627966 0.023902614 -0.046894766
0002d0 2c ff 62 3c f7 6c 89 bd 0b 7f cd 3c f3 0f e4 bc
       0.013854783 -0.067102365 0.025084993 -0.027839636
0002e0 04 a5 33 3e 38 c6 b9 bc 95 72 84 bd a7 78 0f 3c
       0.17543417 -0.022677526 -0.06467167 0.008756793
0002f0 0f f7 b4 bc 70 78 40 3e 18 e0 d7 3d f5 f5 17 3c
       -0.022090463 0.18795943 0.10540789 0.009274949
000300 f7 1c fa 3d dd f7 9b bc 52 1e e4 3c 12 fc 27 3d
       0.12212556 -0.019039089 0.02784649 0.041011877
000310 b2 ad 7a 3b fa e3 48 bd 34 29 a2 3d e2 31 b6 bb
       0.0038250503 -0.04904554 0.07918015 -0.0055601457
000320 b0 a9 fa 3c 81 bb d0 bd c3 eb 83 bc 4a fb cb 3d
       0.030598491 -0.101920135 -0.01610363 0.09960039
000330 12 ec 82 3d 5b c3 b3 bc 1e 56 87 3d 63 82 13 be
       0.06392683 -0.021943739 0.066082224 -0.14405207
000340 b7 6a 6e 3c c1 0e 16 bd 52 97 f0 3d 05 0e 57 3c
       0.01455181 -0.036635164 0.11747612 0.013125901
000350 3e 98 0a bd 4f a8 4d be 13 6b 89 bc 06 e4 00 3d
       -0.033836596 -0.20083736 -0.01677469 0.03146746
000360 9d 20 33 3d 30 4c 41 3c 3b 18 bc 3d 63 48 a4 3d
       0.043732274 0.01179795 0.09184309 0.08021619
000370 70 dd dd 3b 0d 33 57 bd 99 b1 84 3c 57 8e c0 bc
       0.006770782 -0.05253892 0.016197966 -0.023505373
000380 67 55 08 3e 54 6d 04 be a8 74 75 3d 9b 93 1b bd
       0.13313828 -0.1293233 0.059925705 -0.037982564
000390 a6 87 07 be f7 b6 06 be 56 ad 1b be c1 80 ea bd
       -0.1323534 -0.13155733 -0.15202841 -0.11450339
0003a0 6d b5 d9 3c ee ba e1 3b f0 29 9c 3d a5 0c 35 3d
       0.026575768 0.006888739 0.076251864 0.044201512
0003b0 bc a5 25 be 02 f3 3f 3e c4 87 24 3d bd 5b c7 3d
       -0.16176504 0.18745044 0.04016854 0.097342946
0003c0 60 00 08 3e 7e 18 94 3d 98 19 98 ba 2d e9 f2 bc
       0.13281393 0.07231234 -0.0011604307 -0.029652203
0003d0 a3 b2 e6 3d 70 30 a7 bd 91 cd 68 3d fc 6c 18 bd
       0.11264541 -0.081635356 0.05683667 -0.03721331
0003e0 9f 19 06 bd 96 64 c0 bb 35 5e 4a 3d 22 d6 13 3e
       -0.032739278 -0.005871366 0.04940625 0.14437154
0003f0 ed 1d 14 bd 89 f5 d2 3b e1 e3 e7 3c 9c 28 b9 bd
       -0.036161352 0.0064379615 0.028306903 -0.09040949

while/MatMul f4 [256, 32]
000000 8e b4 2f 3d 6b 84 4e 3c f0 68 28 3e b4 a9 da 3d
       0.0428968 0.012604813 0.1644628 0.106768996
000010 a9 1a 90 bd 3f f7 de bd 57 20 7d bd d9 ec 85 ba
       -0.07036335 -0.10887002 -0.06179842 -0.0010217681
000020 44 35 15 3c 62 cd 25 3e d1 ad f1 3c d1 b9 bb bd
       0.009106938 0.16191629 0.029501827 -0.09166301
000030 4e d5 c1 bd ce 8f 9f 3d 99 8f c4 bd 72 53 ad 3d
       -0.09464513 0.077911004 -0.095977016 0.084631816
000040 0d 94 7d bc 01 49 5e 3d 51 5c 9a 3a 14 72 70 bd
       -0.015477193 0.05426884 0.001177678 -0.058702543
000050 5f d2 97 bb 8f ae d3 bc d5 37 29 be 9b be 3d bc
       -0.0046332325 -0.025840072 -0.16525204 -0.011581088
000060 ea 82 4b bd c6 56 ac 3d 1b 2b 2a bb 40 31 46 37
       -0.049685396 0.08414988 -0.0025965634 1.1813187e-05
000070 55 cb 3d be e1 14 99 bb 16 09 f4 3d 4f fe 5d 3d
       -0.18534596 -0.0046716784 0.119157955 0.054197606
000080 c3 5f 60 bb a2 53 ad 3d 6d a1 56 3e 0c db 10 3d
       -0.0034236766 0.08463217 0.20960017 0.03536515
000090 a6 d1 d4 3d 6d a2 25 be 06 33 b8 bc 71 37 8b 3c
       0.1039155 -0.16175242 -0.022485267 0.01699421
0000a0 50 8f 40 3e c5 69 d8 bc eb 8b 6f bd 5f 3a ed 3d
       0.1880467 -0.026417622 -0.058483046 0.11583399
0000b0 05 6f 9a b9 b8 52 1b 3e 39 47 d6 3d ce 86 95 3d
       -0.00029455885 0.15168273 0.104628034 0.073011026
0000c0 f3 a4 0a 3e a9 31 2e 3d 54 6c 19 be d6 8a 53 3e
       0.13539486 0.04252783 -0.1498273 0.2065843
0000d0 94 6f 07 3d 6b 28 3b bd 6e e9 8d 3d 11 48 e6 bd
       0.033065394 -0.045692842 0.06929289 -0.11244214
0000e0 ae 6d ea bc 5b 44 fa bd de 7b 0c be f2 c8 f0 bc
       -0.028616752 -0.12220069 -0.13719127 -0.029392693
0000f0 d6 66 cd bd b7 47 ae bb 76 85 d7 bd 79 e9 34 be
       -0.1002938 -0.0053186077 -0.105235025 -0.17667188
000100 62 28 3c be fd 8f af bd a1 93 25 bc 3c c5 55 3d
       -0.1837478 -0.085723855 -0.010105998 0.05219005
000110 54 ac 2b bd f3 de 83 3d d6 c4 0e 3e 0e 3c 84 bd
       -0.04191239 0.064390086 0.13942274 -0.06456767
000120 d8 e0 de 3d f9 70 12 3d 8a fd f7 3d b0 7d 70 bd
       0.10882729 0.03575227 0.121089056 -0.058713615
000130 e3 96 08 be 12 f4 f1 3d 42 4f 85 3c 06 3d 0d 3e
       -0.13338809 0.11814131 0.016273145 0.1379281
000140 ee b8 89 bd 48 7d ee 3d 9c db bb 3d 48 c1 25 bd
       -0.06724726 0.11644989 0.091727465 -0.04046753
000150 eb 6c c8 3d a1 37 2d bd f4 d1 c6 3d 08 7e da bd
       0.097863995 -0.04228938 0.09708014 -0.1066857
000160 84 b7 57 bd d7 f8 fd 3c 44 f6 0e be 9f 46 e7 3d
       -0.05266525 0.031002445 -0.1396113 0.11292767
000170 01 21 91 3c b5 ee c7 bd e9 96 d4 3d 96 12 e4 3d
       0.017715933 -0.09762327 0.10380346 0.111363575
000180 85 5e 3f 3d 3e b0 9b 3d 9c 37 b7 bd d8 34 1e be
       0.046721 0.07601975 -0.089461535 -0.15449846
000190 07 3d cd bc 65 0a 03 be 7d d9 f7 bc f5 87 fb 3c
       -0.025053514 -0.12796934 -0.030255074 0.030704478
0001a0 e8 23 36 bc f5 12 15 bd 55 52 86 bd 09 51 e4 bd
       -0.011116959 -0.036395032 -0.06558672 -0.11148269
0001b0 57 d1 ae 3c 69 b0 95 bd c9 e2 cb 3d 78 70 df 3d
       0.021340055 -0.07309038 0.09955365 0.109101236
0001c0 4d c3 40 bd 1b 54 bc 3c 48 b2 26 bd a5 90 d1 bd
       -0.047061253 0.022989323 -0.040697366 -0.10232667
0001d0 da a0 54 3e c3 2a 87 3c ec 0c 31 3c 31 bf db 3d
       0.20764485 0.016499883 0.0108063035 0.10729826
0001e0 ea 00 c5 3b 90 c3 6d 3c f6 2f c2 3c bc 0d 96 bb
       0.006012072 0.014511958 0.02370451 -0.004579274
0001f0 f2 5e af bd 12 ca 95 3b da 0d 95 3d 60 20 3c bc
       -0.08563031 0.004571208 0.072780326 -0.011482328
000200 d6 a2 95 3b 27 9c 33 3e 7b 4b 6d 3d 7d 27 ed 3c
       0.0045665307 0.17540036 0.057933312 0.028949494
000210 20 0f 64 bd 8f 78 05 be ed 36 2f be c6 32 f1 bd
       -0.055678487 -0.1303427 -0.17110796 -0.117772624
000220 8a 86 12 3e ab 5a c3 3c 14 17 c3 3c 61 84 27 3e
       0.14309135 0.023846945 0.023814715 0.16359092
000230 fd 91 00 3d 8f 87 4f bd b6 64 e3 bd 18 59 06 be
       0.031389225 -0.050666388 -0.111031935 -0.13119924
000240 2f 23 a6 bd c1 e1 8f 3b 26 e5 42 be 4d 8b fd bd
       -0.081121795 0.0043909256 -0.19032726 -0.12380085
000250 bb fc 37 3e 31 36 31 bd 87 00 34 3d fc 05 10 be
       0.17967503 -0.04326457 0.043945815 -0.14064783
000260 79 d1 1f 3d 12 6c 6d bd 15 d8 a1 3d fb 53 a3 3d
       0.039018128 -0.057964392 0.079025425 0.079750024
000270 67 a1 b1 bd ad 85 f7 3d 36 83 3c bd 3e 86 e4 bd
       -0.08673363 0.120860435 -0.04602357 -0.11158417
000280 fa f2 16 3d 5b 43 07 3e 4d e6 32 3e 3f d3 f0 bb
       0.036852814 0.13209288 0.17470665 -0.0073494012
000290 b3 0b 81 3c ee b4 68 be 97 f8 7e bd 18 74 ed 3d
       0.015752649 -0.22725269 -0.062248792 0.11594409
0002a0 70 bf 55 3d f4 a7 66 3d 11 b0 48 3e 88 56 79 3d
       0.052184522 0.056312516 0.19598414 0.06087354
0002b0 0d 14 4c be c3 eb 18 3e 3c 15 03 3e 18 d0 0d 3d
       -0.19929524 0.14933686 0.12801069 0.03462228
0002c0 5c b0 af bd da 96 0a be 61 9b 03 bc 90 a1 ff bd
       -0.0857856 -0.13534108 -0.008032651 -0.124819875
0002d0 cf b5 10 3e b7 d8 d5 bd 8e 73 04 3d bf 31 b0 bd
       0.14131854 -0.10441726 0.032336764 -0.08603238
0002e0 31 7c 4d bd 73 55 72 bd f6 7a 81 bd 22 89 38 3c
       -0.050167266 -0.059163522 -0.06322281 0.011263164
0002f0 31 b4 50 bd 09 97 a1 3d 4f d9 c9 3d 2d 62 23 be
       -0.050953094 0.07890136 0.098559014 -0.1595542
000300 0b a3 b1 3d bc 75 54 3e 8e 62 13 be ad f6 22 bd
       0.08673676 0.20748037 -0.14393064 -0.03978603
000310 43 ee 65 bd cf 22 2d bd 6a 16 18 be 5c 2a 43 be
       -0.056135427 -0.042269524 -0.148523 -0.19059128
000320 85 7b 3f 3d dc d4 06 bd 44 11 15 3d 89 05 b8 bc
       0.046748657 -0.032917842 0.03639342 -0.022463577
000330 d8 09 1b be 57 ce a5 bc 65 05 3d be a3 e1 52 be
       -0.15140474 -0.020239992 -0.18459089 -0.20593886
000340 a9 35 17 3d eb d4 c2 bd fe 99 56 3c 8b cd 34 3d
       0.03691641 -0.09513267 0.013098238 0.044141334
000350 df 25 3a bc 02 21 8b bc b7 90 29 3d 81 f3 fb bc
       -0.011361568 -0.016983513 0.041397776 -0.03075576
000360 68 e9 26 be c8 ac 29 3e 34 48 5f bd bb b7 89 bd
       -0.16299975 0.16569817 -0.054512218 -0.06724497
000370 61 07 41 bd 6c 98 1b 3e 1c e5 06 3e b3 ff 00 be
       -0.047126178 0.15194863 0.13173336 -0.12597542
000380 32 c6 45 3e 15 11 53 3e f9 7f 10 3e 29 6b a1 bc
       0.19313887 0.20611985 0.14111318 -0.019704418
000390 29 90 a2 3d 82 e3 8c 3d 58 51 93 bd 8e fb 09 3d
       0.079376526 0.06879331 -0.071932495 0.033687167
0003a0 b0 d5 c9 bd 20 2d 08 3e 52 b1 59 3e 90 fd 6b 3d
       -0.09855211 0.13298464 0.21259049 0.057614863
0003b0 e0 8b 60 3d 1b d6 f9 3d b9 4a 9b 3d ee 52 b0 3d
       0.054820895 0.121990405 0.075826116 0.086095676
0003c0 80 a5 19 bb 66 43 5a 3d ee 97 58 3d 2c 6b 90 3b
       -0.0023444593 0.053286932 0.052879266 0.004407307
0003d0 b9 bd 4e 3e bc 83 05 be e1 f0 08 3d cd 9e 2c be
       0.20189561 -0.13038534 0.033432845 -0.16857453
0003e0 1f 85 a3 bd ee bf ae bd c3 e2 cb 3d c5 d8 02 3e
       -0.07984375 -0.085327014 0.09955361 0.12778004
0003f0 7a 80 18 be e3 0d b8 bb 86 a5 bc bc 30 b8 f3 bd
       -0.1489276 -0.00561689 -0.023028146 -0.11900365
